…
	WeightsUnpickler error: Unsupported global: GLOBAL models.yolo.Model was not an allowed global by default. Please use `torch.serialization.add_safe_globals([models.yolo.Model])` or the `torch.serialization.safe_globals([models.yolo.Model])` context manager to allowlist this global if you trust this class/function.

Check the documentation of torch.load to learn more about types accepted by default with weights_only https://pytorch.org/docs/stable/generated/torch.load.html.. Cache may be out of date, try `force_reload=True` or see https://docs.ultralytics.com/yolov5/tutorials/pytorch_hub_model_loading for help.
Successful loading of model!
model: AutoShape(
  (model): DetectMultiBackend(
    (model): DetectionModel(
      (model): Sequential(
        (0): Conv(
          (conv): Conv2d(3, 32, kernel_size=(6, 6), stride=(2, 2), padding=(2, 2))
          (act): SiLU(inplace=True)
        )
        (1): Conv(
          (conv): Conv2d(32, 64, kernel_size=(3, 3), stride=(2, 2), padding=(1, 1))
          (act): SiLU(inplace=True)
        )
        (2): C3(
          (cv1): Conv(
            (conv): Conv2d(64, 32, kernel_size=(1, 1), stride=(1, 1))
            (act): SiLU(inplace=True)
          )
          (cv2): Conv(
            (conv): Conv2d(64, 32, kernel_size=(1, 1), stride=(1, 1))
            (act): SiLU(inplace=True)
          )
          (cv3): Conv(
            (conv): Conv2d(64, 64, kernel_size=(1, 1), stride=(1, 1))
            (act): SiLU(inplace=True)
          )
          (m): Sequential(
            (0): Bottleneck(
              (cv1): Conv(
                (conv): Conv2d(32, 32, kernel_size=(1, 1), stride=(1, 1))
                (act): SiLU(inplace=True)
              )
              (cv2): Conv(
                (conv): Conv2d(32, 32, kernel_size=(3, 3), stride=(1, 1), padding=(1, 1))
                (act): SiLU(inplace=True)
              )
            )
          )
        )
        (3): Conv(
          (conv): Conv2d(64, 128, kernel_size=(3, 3), stride=(2, 2), padding=(1, 1))
          (act): SiLU(inplace=True)
        )
        (4): C3(
          (cv1): Conv(
            (conv): Conv2d(128, 64, kernel_size=(1, 1), stride=(1, 1))
            (act): SiLU(inplace=True)
          )
          (cv2): Conv(
            (conv): Conv2d(128, 64, kernel_size=(1, 1), stride=(1, 1))
            (act): SiLU(inplace=True)
          )
          (cv3): Conv(
            (conv): Conv2d(128, 128, kernel_size=(1, 1), stride=(1, 1))
            (act): SiLU(inplace=True)
          )
          (m): Sequential(
            (0): Bottleneck(
              (cv1): Conv(
                (conv): Conv2d(64, 64, kernel_size=(1, 1), stride=(1, 1))
                (act): SiLU(inplace=True)
              )
              (cv2): Conv(
                (conv): Conv2d(64, 64, kernel_size=(3, 3), stride=(1, 1), padding=(1, 1))
                (act): SiLU(inplace=True)
              )
            )
            (1): Bottleneck(
              (cv1): Conv(
                (conv): Conv2d(64, 64, kernel_size=(1, 1), stride=(1, 1))
                (act): SiLU(inplace=True)
              )
              (cv2): Conv(
                (conv): Conv2d(64, 64, kernel_size=(3, 3), stride=(1, 1), padding=(1, 1))
                (act): SiLU(inplace=True)
              )
            )
          )
        )
        (5): Conv(
          (conv): Conv2d(128, 256, kernel_size=(3, 3), stride=(2, 2), padding=(1, 1))
          (act): SiLU(inplace=True)
        )
        (6): C3(
          (cv1): Conv(
            (conv): Conv2d(256, 128, kernel_size=(1, 1), stride=(1, 1))
            (act): SiLU(inplace=True)
          )
          (cv2): Conv(
            (conv): Conv2d(256, 128, kernel_size=(1, 1), stride=(1, 1))
            (act): SiLU(inplace=True)
          )
          (cv3): Conv(
            (conv): Conv2d(256, 256, kernel_size=(1, 1), stride=(1, 1))
            (act): SiLU(inplace=True)
          )
          (m): Sequential(
            (0): Bottleneck(
              (cv1): Conv(
                (conv): Conv2d(128, 128, kernel_size=(1, 1), stride=(1, 1))
                (act): SiLU(inplace=True)
              )
              (cv2): Conv(
                (conv): Conv2d(128, 128, kernel_size=(3, 3), stride=(1, 1), padding=(1, 1))
                (act): SiLU(inplace=True)
              )
            )
            (1): Bottleneck(
              (cv1): Conv(
                (conv): Conv2d(128, 128, kernel_size=(1, 1), stride=(1, 1))
                (act): SiLU(inplace=True)
              )
              (cv2): Conv(
                (conv): Conv2d(128, 128, kernel_size=(3, 3), stride=(1, 1), padding=(1, 1))
                (act): SiLU(inplace=True)
              )
            )
            (2): Bottleneck(
              (cv1): Conv(
                (conv): Conv2d(128, 128, kernel_size=(1, 1), stride=(1, 1))
                (act): SiLU(inplace=True)
              )
              (cv2): Conv(
                (conv): Conv2d(128, 128, kernel_size=(3, 3), stride=(1, 1), padding=(1, 1))
                (act): SiLU(inplace=True)
              )
            )
          )
        )
        (7): Conv(
          (conv): Conv2d(256, 384, kernel_size=(3, 3), stride=(2, 2), padding=(1, 1))
          (act): SiLU(inplace=True)
        )
        (8): C3(
          (cv1): Conv(
            (conv): Conv2d(384, 192, kernel_size=(1, 1), stride=(1, 1))
            (act): SiLU(inplace=True)
          )
          (cv2): Conv(
            (conv): Conv2d(384, 192, kernel_size=(1, 1), stride=(1, 1))
            (act): SiLU(inplace=True)
          )
          (cv3): Conv(
            (conv): Conv2d(384, 384, kernel_size=(1, 1), stride=(1, 1))
            (act): SiLU(inplace=True)
          )
          (m): Sequential(
            (0): Bottleneck(
              (cv1): Conv(
                (conv): Conv2d(192, 192, kernel_size=(1, 1), stride=(1, 1))
                (act): SiLU(inplace=True)
              )
              (cv2): Conv(
                (conv): Conv2d(192, 192, kernel_size=(3, 3), stride=(1, 1), padding=(1, 1))
                (act): SiLU(inplace=True)
              )
            )
          )
        )
        (9): Conv(
          (conv): Conv2d(384, 512, kernel_size=(3, 3), stride=(2, 2), padding=(1, 1))
          (act): SiLU(inplace=True)
        )
        (10): C3(
          (cv1): Conv(
            (conv): Conv2d(512, 256, kernel_size=(1, 1), stride=(1, 1))
            (act): SiLU(inplace=True)
          )
          (cv2): Conv(
            (conv): Conv2d(512, 256, kernel_size=(1, 1), stride=(1, 1))
            (act): SiLU(inplace=True)
          )
          (cv3): Conv(
            (conv): Conv2d(512, 512, kernel_size=(1, 1), stride=(1, 1))
            (act): SiLU(inplace=True)
          )
          (m): Sequential(
            (0): Bottleneck(
              (cv1): Conv(
                (conv): Conv2d(256, 256, kernel_size=(1, 1), stride=(1, 1))
                (act): SiLU(inplace=True)
              )
              (cv2): Conv(
                (conv): Conv2d(256, 256, kernel_size=(3, 3), stride=(1, 1), padding=(1, 1))
                (act): SiLU(inplace=True)
              )
            )
          )
        )
        (11): SPPF(
          (cv1): Conv(
            (conv): Conv2d(512, 256, kernel_size=(1, 1), stride=(1, 1))
            (act): SiLU(inplace=True)
          )
          (cv2): Conv(
            (conv): Conv2d(1024, 512, kernel_size=(1, 1), stride=(1, 1))
            (act): SiLU(inplace=True)
          )
          (m): MaxPool2d(kernel_size=5, stride=1, padding=2, dilation=1, ceil_mode=False)
        )
        (12): Conv(
          (conv): Conv2d(512, 384, kernel_size=(1, 1), stride=(1, 1))
          (act): SiLU(inplace=True)
        )
        (13): Upsample(scale_factor=2.0, mode='nearest')
        (14): Concat()
        (15): C3(
          (cv1): Conv(
            (conv): Conv2d(768, 192, kernel_size=(1, 1), stride=(1, 1))
            (act): SiLU(inplace=True)
          )
          (cv2): Conv(
            (conv): Conv2d(768, 192, kernel_size=(1, 1), stride=(1, 1))
            (act): SiLU(inplace=True)
          )
          (cv3): Conv(
            (conv): Conv2d(384, 384, kernel_size=(1, 1), stride=(1, 1))
            (act): SiLU(inplace=True)
          )
          (m): Sequential(
            (0): Bottleneck(
              (cv1): Conv(
                (conv): Conv2d(192, 192, kernel_size=(1, 1), stride=(1, 1))
                (act): SiLU(inplace=True)
              )
              (cv2): Conv(
                (conv): Conv2d(192, 192, kernel_size=(3, 3), stride=(1, 1), padding=(1, 1))
                (act): SiLU(inplace=True)
              )
            )
          )
        )
        (16): Conv(
          (conv): Conv2d(384, 256, kernel_size=(1, 1), stride=(1, 1))
          (act): SiLU(inplace=True)
        )
        (17): Upsample(scale_factor=2.0, mode='nearest')
        (18): Concat()
        (19): C3(
          (cv1): Conv(
            (conv): Conv2d(512, 128, kernel_size=(1, 1), stride=(1, 1))
            (act): SiLU(inplace=True)
          )
          (cv2): Conv(
            (conv): Conv2d(512, 128, kernel_size=(1, 1), stride=(1, 1))
            (act): SiLU(inplace=True)
          )
          (cv3): Conv(
            (conv): Conv2d(256, 256, kernel_size=(1, 1), stride=(1, 1))
            (act): SiLU(inplace=True)
          )
          (m): Sequential(
            (0): Bottleneck(
              (cv1): Conv(
                (conv): Conv2d(128, 128, kernel_size=(1, 1), stride=(1, 1))
                (act): SiLU(inplace=True)
              )
              (cv2): Conv(
                (conv): Conv2d(128, 128, kernel_size=(3, 3), stride=(1, 1), padding=(1, 1))
                (act): SiLU(inplace=True)
              )
            )
          )
        )
        (20): Conv(
          (conv): Conv2d(256, 128, kernel_size=(1, 1), stride=(1, 1))
          (act): SiLU(inplace=True)
        )
        (21): Upsample(scale_factor=2.0, mode='nearest')
        (22): Concat()
        (23): C3(
          (cv1): Conv(
            (conv): Conv2d(256, 64, kernel_size=(1, 1), stride=(1, 1))
            (act): SiLU(inplace=True)
          )
          (cv2): Conv(
            (conv): Conv2d(256, 64, kernel_size=(1, 1), stride=(1, 1))
            (act): SiLU(inplace=True)
          )
          (cv3): Conv(
            (conv): Conv2d(128, 128, kernel_size=(1, 1), stride=(1, 1))
            (act): SiLU(inplace=True)
          )
          (m): Sequential(
            (0): Bottleneck(
              (cv1): Conv(
                (conv): Conv2d(64, 64, kernel_size=(1, 1), stride=(1, 1))
                (act): SiLU(inplace=True)
              )
              (cv2): Conv(
                (conv): Conv2d(64, 64, kernel_size=(3, 3), stride=(1, 1), padding=(1, 1))
                (act): SiLU(inplace=True)
              )
            )
          )
        )
        (24): Conv(
          (conv): Conv2d(128, 128, kernel_size=(3, 3), stride=(2, 2), padding=(1, 1))
          (act): SiLU(inplace=True)
        )
        (25): Concat()
        (26): C3(
          (cv1): Conv(
            (conv): Conv2d(256, 128, kernel_size=(1, 1), stride=(1, 1))
            (act): SiLU(inplace=True)
          )
          (cv2): Conv(
            (conv): Conv2d(256, 128, kernel_size=(1, 1), stride=(1, 1))
            (act): SiLU(inplace=True)
          )
          (cv3): Conv(
            (conv): Conv2d(256, 256, kernel_size=(1, 1), stride=(1, 1))
            (act): SiLU(inplace=True)
          )
          (m): Sequential(
            (0): Bottleneck(
              (cv1): Conv(
                (conv): Conv2d(128, 128, kernel_size=(1, 1), stride=(1, 1))
                (act): SiLU(inplace=True)
              )
              (cv2): Conv(
                (conv): Conv2d(128, 128, kernel_size=(3, 3), stride=(1, 1), padding=(1, 1))
                (act): SiLU(inplace=True)
              )
            )
          )
        )
        (27): Conv(
          (conv): Conv2d(256, 256, kernel_size=(3, 3), stride=(2, 2), padding=(1, 1))
          (act): SiLU(inplace=True)
        )
        (28): Concat()
        (29): C3(
          (cv1): Conv(
            (conv): Conv2d(512, 192, kernel_size=(1, 1), stride=(1, 1))
            (act): SiLU(inplace=True)
          )
          (cv2): Conv(
            (conv): Conv2d(512, 192, kernel_size=(1, 1), stride=(1, 1))
            (act): SiLU(inplace=True)
          )
          (cv3): Conv(
            (conv): Conv2d(384, 384, kernel_size=(1, 1), stride=(1, 1))
            (act): SiLU(inplace=True)
          )
          (m): Sequential(
            (0): Bottleneck(
              (cv1): Conv(
                (conv): Conv2d(192, 192, kernel_size=(1, 1), stride=(1, 1))
                (act): SiLU(inplace=True)
              )
              (cv2): Conv(
                (conv): Conv2d(192, 192, kernel_size=(3, 3), stride=(1, 1), padding=(1, 1))
                (act): SiLU(inplace=True)
              )
            )
          )
        )
        (30): Conv(
          (conv): Conv2d(384, 384, kernel_size=(3, 3), stride=(2, 2), padding=(1, 1))
          (act): SiLU(inplace=True)
        )
        (31): Concat()
        (32): C3(
          (cv1): Conv(
            (conv): Conv2d(768, 256, kernel_size=(1, 1), stride=(1, 1))
            (act): SiLU(inplace=True)
          )
          (cv2): Conv(
            (conv): Conv2d(768, 256, kernel_size=(1, 1), stride=(1, 1))
            (act): SiLU(inplace=True)
          )
          (cv3): Conv(
            (conv): Conv2d(512, 512, kernel_size=(1, 1), stride=(1, 1))
            (act): SiLU(inplace=True)
          )
          (m): Sequential(
            (0): Bottleneck(
              (cv1): Conv(
                (conv): Conv2d(256, 256, kernel_size=(1, 1), stride=(1, 1))
                (act): SiLU(inplace=True)
              )
              (cv2): Conv(
                (conv): Conv2d(256, 256, kernel_size=(3, 3), stride=(1, 1), padding=(1, 1))
                (act): SiLU(inplace=True)
              )
            )
          )
        )
        (33): Detect(
          (m): ModuleList(
            (0): Conv2d(128, 33, kernel_size=(1, 1), stride=(1, 1))
            (1): Conv2d(256, 33, kernel_size=(1, 1), stride=(1, 1))
            (2): Conv2d(384, 33, kernel_size=(1, 1), stride=(1, 1))
            (3): Conv2d(512, 33, kernel_size=(1, 1), stride=(1, 1))
          )
        )
      )
    )
  )
)
Current location!: c:\Users\aviel\Desktop\Projects\Websites\Fripen-AI\Fripen-AI-2.0\app
Image path: c:\Users\aviel\Desktop\Projects\Websites\Fripen-AI\Fripen-AI-2.0\app\static\uploads\blueberrytest.jpg
Ran through results
Image path: None
Image path entered into if loop
old image removed
Results saved into: c:\Users\aviel\Desktop\Projects\Websites\Fripen-AI\Fripen-AI-2.0\app\static\uploads\blueberrytest.jpg
AT the RETURN STATEMENT
Successful loading of model!
model: AutoShape(
  (model): DetectMultiBackend(
    (model): DetectionModel(
      (model): Sequential(
        (0): Conv(
          (conv): Conv2d(3, 32, kernel_size=(6, 6), stride=(2, 2), padding=(2, 2))
          (act): SiLU(inplace=True)
        )
        (1): Conv(
          (conv): Conv2d(32, 64, kernel_size=(3, 3), stride=(2, 2), padding=(1, 1))
          (act): SiLU(inplace=True)
        )
        (2): C3(
          (cv1): Conv(
            (conv): Conv2d(64, 32, kernel_size=(1, 1), stride=(1, 1))
            (act): SiLU(inplace=True)
          )
          (cv2): Conv(
            (conv): Conv2d(64, 32, kernel_size=(1, 1), stride=(1, 1))
            (act): SiLU(inplace=True)
          )
          (cv3): Conv(
            (conv): Conv2d(64, 64, kernel_size=(1, 1), stride=(1, 1))
            (act): SiLU(inplace=True)
          )
          (m): Sequential(
            (0): Bottleneck(
              (cv1): Conv(
                (conv): Conv2d(32, 32, kernel_size=(1, 1), stride=(1, 1))
                (act): SiLU(inplace=True)
              )
              (cv2): Conv(
                (conv): Conv2d(32, 32, kernel_size=(3, 3), stride=(1, 1), padding=(1, 1))
                (act): SiLU(inplace=True)
              )
            )
          )
        )
        (3): Conv(
          (conv): Conv2d(64, 128, kernel_size=(3, 3), stride=(2, 2), padding=(1, 1))
          (act): SiLU(inplace=True)
        )
        (4): C3(
          (cv1): Conv(
            (conv): Conv2d(128, 64, kernel_size=(1, 1), stride=(1, 1))
            (act): SiLU(inplace=True)
          )
          (cv2): Conv(
            (conv): Conv2d(128, 64, kernel_size=(1, 1), stride=(1, 1))
            (act): SiLU(inplace=True)
          )
          (cv3): Conv(
            (conv): Conv2d(128, 128, kernel_size=(1, 1), stride=(1, 1))
            (act): SiLU(inplace=True)
          )
          (m): Sequential(
            (0): Bottleneck(
              (cv1): Conv(
                (conv): Conv2d(64, 64, kernel_size=(1, 1), stride=(1, 1))
                (act): SiLU(inplace=True)
              )
              (cv2): Conv(
                (conv): Conv2d(64, 64, kernel_size=(3, 3), stride=(1, 1), padding=(1, 1))
                (act): SiLU(inplace=True)
              )
            )
            (1): Bottleneck(
              (cv1): Conv(
                (conv): Conv2d(64, 64, kernel_size=(1, 1), stride=(1, 1))
                (act): SiLU(inplace=True)
              )
              (cv2): Conv(
                (conv): Conv2d(64, 64, kernel_size=(3, 3), stride=(1, 1), padding=(1, 1))
                (act): SiLU(inplace=True)
              )
            )
          )
        )
        (5): Conv(
          (conv): Conv2d(128, 256, kernel_size=(3, 3), stride=(2, 2), padding=(1, 1))
          (act): SiLU(inplace=True)
        )
        (6): C3(
          (cv1): Conv(
            (conv): Conv2d(256, 128, kernel_size=(1, 1), stride=(1, 1))
            (act): SiLU(inplace=True)
          )
          (cv2): Conv(
            (conv): Conv2d(256, 128, kernel_size=(1, 1), stride=(1, 1))
            (act): SiLU(inplace=True)
          )
          (cv3): Conv(
            (conv): Conv2d(256, 256, kernel_size=(1, 1), stride=(1, 1))
            (act): SiLU(inplace=True)
          )
          (m): Sequential(
            (0): Bottleneck(
              (cv1): Conv(
                (conv): Conv2d(128, 128, kernel_size=(1, 1), stride=(1, 1))
                (act): SiLU(inplace=True)
              )
              (cv2): Conv(
                (conv): Conv2d(128, 128, kernel_size=(3, 3), stride=(1, 1), padding=(1, 1))
                (act): SiLU(inplace=True)
              )
            )
            (1): Bottleneck(
              (cv1): Conv(
                (conv): Conv2d(128, 128, kernel_size=(1, 1), stride=(1, 1))
                (act): SiLU(inplace=True)
              )
              (cv2): Conv(
                (conv): Conv2d(128, 128, kernel_size=(3, 3), stride=(1, 1), padding=(1, 1))
                (act): SiLU(inplace=True)
              )
            )
            (2): Bottleneck(
              (cv1): Conv(
                (conv): Conv2d(128, 128, kernel_size=(1, 1), stride=(1, 1))
                (act): SiLU(inplace=True)
              )
              (cv2): Conv(
                (conv): Conv2d(128, 128, kernel_size=(3, 3), stride=(1, 1), padding=(1, 1))
                (act): SiLU(inplace=True)
              )
            )
          )
        )
        (7): Conv(
          (conv): Conv2d(256, 384, kernel_size=(3, 3), stride=(2, 2), padding=(1, 1))
          (act): SiLU(inplace=True)
        )
        (8): C3(
          (cv1): Conv(
            (conv): Conv2d(384, 192, kernel_size=(1, 1), stride=(1, 1))
            (act): SiLU(inplace=True)
          )
          (cv2): Conv(
            (conv): Conv2d(384, 192, kernel_size=(1, 1), stride=(1, 1))
            (act): SiLU(inplace=True)
          )
          (cv3): Conv(
            (conv): Conv2d(384, 384, kernel_size=(1, 1), stride=(1, 1))
            (act): SiLU(inplace=True)
          )
          (m): Sequential(
            (0): Bottleneck(
              (cv1): Conv(
                (conv): Conv2d(192, 192, kernel_size=(1, 1), stride=(1, 1))
                (act): SiLU(inplace=True)
              )
              (cv2): Conv(
                (conv): Conv2d(192, 192, kernel_size=(3, 3), stride=(1, 1), padding=(1, 1))
                (act): SiLU(inplace=True)
              )
            )
          )
        )
        (9): Conv(
          (conv): Conv2d(384, 512, kernel_size=(3, 3), stride=(2, 2), padding=(1, 1))
          (act): SiLU(inplace=True)
        )
        (10): C3(
          (cv1): Conv(
            (conv): Conv2d(512, 256, kernel_size=(1, 1), stride=(1, 1))
            (act): SiLU(inplace=True)
          )
          (cv2): Conv(
            (conv): Conv2d(512, 256, kernel_size=(1, 1), stride=(1, 1))
            (act): SiLU(inplace=True)
          )
          (cv3): Conv(
            (conv): Conv2d(512, 512, kernel_size=(1, 1), stride=(1, 1))
            (act): SiLU(inplace=True)
          )
          (m): Sequential(
            (0): Bottleneck(
              (cv1): Conv(
                (conv): Conv2d(256, 256, kernel_size=(1, 1), stride=(1, 1))
                (act): SiLU(inplace=True)
              )
              (cv2): Conv(
                (conv): Conv2d(256, 256, kernel_size=(3, 3), stride=(1, 1), padding=(1, 1))
                (act): SiLU(inplace=True)
              )
            )
          )
        )
        (11): SPPF(
          (cv1): Conv(
            (conv): Conv2d(512, 256, kernel_size=(1, 1), stride=(1, 1))
            (act): SiLU(inplace=True)
          )
          (cv2): Conv(
            (conv): Conv2d(1024, 512, kernel_size=(1, 1), stride=(1, 1))
            (act): SiLU(inplace=True)
          )
          (m): MaxPool2d(kernel_size=5, stride=1, padding=2, dilation=1, ceil_mode=False)
        )
        (12): Conv(
          (conv): Conv2d(512, 384, kernel_size=(1, 1), stride=(1, 1))
          (act): SiLU(inplace=True)
        )
        (13): Upsample(scale_factor=2.0, mode='nearest')
        (14): Concat()
        (15): C3(
          (cv1): Conv(
            (conv): Conv2d(768, 192, kernel_size=(1, 1), stride=(1, 1))
            (act): SiLU(inplace=True)
          )
          (cv2): Conv(
            (conv): Conv2d(768, 192, kernel_size=(1, 1), stride=(1, 1))
            (act): SiLU(inplace=True)
          )
          (cv3): Conv(
            (conv): Conv2d(384, 384, kernel_size=(1, 1), stride=(1, 1))
            (act): SiLU(inplace=True)
          )
          (m): Sequential(
            (0): Bottleneck(
              (cv1): Conv(
                (conv): Conv2d(192, 192, kernel_size=(1, 1), stride=(1, 1))
                (act): SiLU(inplace=True)
              )
              (cv2): Conv(
                (conv): Conv2d(192, 192, kernel_size=(3, 3), stride=(1, 1), padding=(1, 1))
                (act): SiLU(inplace=True)
              )
            )
          )
        )
        (16): Conv(
          (conv): Conv2d(384, 256, kernel_size=(1, 1), stride=(1, 1))
          (act): SiLU(inplace=True)
        )
        (17): Upsample(scale_factor=2.0, mode='nearest')
        (18): Concat()
        (19): C3(
          (cv1): Conv(
            (conv): Conv2d(512, 128, kernel_size=(1, 1), stride=(1, 1))
            (act): SiLU(inplace=True)
          )
          (cv2): Conv(
            (conv): Conv2d(512, 128, kernel_size=(1, 1), stride=(1, 1))
            (act): SiLU(inplace=True)
          )
          (cv3): Conv(
            (conv): Conv2d(256, 256, kernel_size=(1, 1), stride=(1, 1))
            (act): SiLU(inplace=True)
          )
          (m): Sequential(
            (0): Bottleneck(
              (cv1): Conv(
                (conv): Conv2d(128, 128, kernel_size=(1, 1), stride=(1, 1))
                (act): SiLU(inplace=True)
              )
              (cv2): Conv(
                (conv): Conv2d(128, 128, kernel_size=(3, 3), stride=(1, 1), padding=(1, 1))
                (act): SiLU(inplace=True)
              )
            )
          )
        )
        (20): Conv(
          (conv): Conv2d(256, 128, kernel_size=(1, 1), stride=(1, 1))
          (act): SiLU(inplace=True)
        )
        (21): Upsample(scale_factor=2.0, mode='nearest')
        (22): Concat()
        (23): C3(
          (cv1): Conv(
            (conv): Conv2d(256, 64, kernel_size=(1, 1), stride=(1, 1))
            (act): SiLU(inplace=True)
          )
          (cv2): Conv(
            (conv): Conv2d(256, 64, kernel_size=(1, 1), stride=(1, 1))
            (act): SiLU(inplace=True)
          )
          (cv3): Conv(
            (conv): Conv2d(128, 128, kernel_size=(1, 1), stride=(1, 1))
            (act): SiLU(inplace=True)
          )
          (m): Sequential(
            (0): Bottleneck(
              (cv1): Conv(
                (conv): Conv2d(64, 64, kernel_size=(1, 1), stride=(1, 1))
                (act): SiLU(inplace=True)
              )
              (cv2): Conv(
                (conv): Conv2d(64, 64, kernel_size=(3, 3), stride=(1, 1), padding=(1, 1))
                (act): SiLU(inplace=True)
              )
            )
          )
        )
        (24): Conv(
          (conv): Conv2d(128, 128, kernel_size=(3, 3), stride=(2, 2), padding=(1, 1))
          (act): SiLU(inplace=True)
        )
        (25): Concat()
        (26): C3(
          (cv1): Conv(
            (conv): Conv2d(256, 128, kernel_size=(1, 1), stride=(1, 1))
            (act): SiLU(inplace=True)
          )
          (cv2): Conv(
            (conv): Conv2d(256, 128, kernel_size=(1, 1), stride=(1, 1))
            (act): SiLU(inplace=True)
          )
          (cv3): Conv(
            (conv): Conv2d(256, 256, kernel_size=(1, 1), stride=(1, 1))
            (act): SiLU(inplace=True)
          )
          (m): Sequential(
            (0): Bottleneck(
              (cv1): Conv(
                (conv): Conv2d(128, 128, kernel_size=(1, 1), stride=(1, 1))
                (act): SiLU(inplace=True)
              )
              (cv2): Conv(
                (conv): Conv2d(128, 128, kernel_size=(3, 3), stride=(1, 1), padding=(1, 1))
                (act): SiLU(inplace=True)
              )
            )
          )
        )
        (27): Conv(
          (conv): Conv2d(256, 256, kernel_size=(3, 3), stride=(2, 2), padding=(1, 1))
          (act): SiLU(inplace=True)
        )
        (28): Concat()
        (29): C3(
          (cv1): Conv(
            (conv): Conv2d(512, 192, kernel_size=(1, 1), stride=(1, 1))
            (act): SiLU(inplace=True)
          )
          (cv2): Conv(
            (conv): Conv2d(512, 192, kernel_size=(1, 1), stride=(1, 1))
            (act): SiLU(inplace=True)
          )
          (cv3): Conv(
            (conv): Conv2d(384, 384, kernel_size=(1, 1), stride=(1, 1))
            (act): SiLU(inplace=True)
          )
          (m): Sequential(
            (0): Bottleneck(
              (cv1): Conv(
                (conv): Conv2d(192, 192, kernel_size=(1, 1), stride=(1, 1))
                (act): SiLU(inplace=True)
              )
              (cv2): Conv(
                (conv): Conv2d(192, 192, kernel_size=(3, 3), stride=(1, 1), padding=(1, 1))
                (act): SiLU(inplace=True)
              )
            )
          )
        )
        (30): Conv(
          (conv): Conv2d(384, 384, kernel_size=(3, 3), stride=(2, 2), padding=(1, 1))
          (act): SiLU(inplace=True)
        )
        (31): Concat()
        (32): C3(
          (cv1): Conv(
            (conv): Conv2d(768, 256, kernel_size=(1, 1), stride=(1, 1))
            (act): SiLU(inplace=True)
          )
          (cv2): Conv(
            (conv): Conv2d(768, 256, kernel_size=(1, 1), stride=(1, 1))
            (act): SiLU(inplace=True)
          )
          (cv3): Conv(
            (conv): Conv2d(512, 512, kernel_size=(1, 1), stride=(1, 1))
            (act): SiLU(inplace=True)
          )
          (m): Sequential(
            (0): Bottleneck(
              (cv1): Conv(
                (conv): Conv2d(256, 256, kernel_size=(1, 1), stride=(1, 1))
                (act): SiLU(inplace=True)
              )
              (cv2): Conv(
                (conv): Conv2d(256, 256, kernel_size=(3, 3), stride=(1, 1), padding=(1, 1))
                (act): SiLU(inplace=True)
              )
            )
          )
        )
        (33): Detect(
          (m): ModuleList(
            (0): Conv2d(128, 33, kernel_size=(1, 1), stride=(1, 1))
            (1): Conv2d(256, 33, kernel_size=(1, 1), stride=(1, 1))
            (2): Conv2d(384, 33, kernel_size=(1, 1), stride=(1, 1))
            (3): Conv2d(512, 33, kernel_size=(1, 1), stride=(1, 1))
          )
        )
      )
    )
  )
)
Error saving file: [Errno 13] Permission denied: 'c:\\Users\\aviel\\Desktop\\Projects\\Websites\\Fripen-AI\\Fripen-AI-2.0\\app\\static\\uploads\\blueberrytest.jpg'
Successful loading of model!
model: AutoShape(
  (model): DetectMultiBackend(
    (model): DetectionModel(
      (model): Sequential(
        (0): Conv(
          (conv): Conv2d(3, 32, kernel_size=(6, 6), stride=(2, 2), padding=(2, 2))
          (act): SiLU(inplace=True)
        )
        (1): Conv(
          (conv): Conv2d(32, 64, kernel_size=(3, 3), stride=(2, 2), padding=(1, 1))
          (act): SiLU(inplace=True)
        )
        (2): C3(
          (cv1): Conv(
            (conv): Conv2d(64, 32, kernel_size=(1, 1), stride=(1, 1))
            (act): SiLU(inplace=True)
          )
          (cv2): Conv(
            (conv): Conv2d(64, 32, kernel_size=(1, 1), stride=(1, 1))
            (act): SiLU(inplace=True)
          )
          (cv3): Conv(
            (conv): Conv2d(64, 64, kernel_size=(1, 1), stride=(1, 1))
            (act): SiLU(inplace=True)
          )
          (m): Sequential(
            (0): Bottleneck(
              (cv1): Conv(
                (conv): Conv2d(32, 32, kernel_size=(1, 1), stride=(1, 1))
                (act): SiLU(inplace=True)
              )
              (cv2): Conv(
                (conv): Conv2d(32, 32, kernel_size=(3, 3), stride=(1, 1), padding=(1, 1))
                (act): SiLU(inplace=True)
              )
            )
          )
        )
        (3): Conv(
          (conv): Conv2d(64, 128, kernel_size=(3, 3), stride=(2, 2), padding=(1, 1))
          (act): SiLU(inplace=True)
        )
        (4): C3(
          (cv1): Conv(
            (conv): Conv2d(128, 64, kernel_size=(1, 1), stride=(1, 1))
            (act): SiLU(inplace=True)
          )
          (cv2): Conv(
            (conv): Conv2d(128, 64, kernel_size=(1, 1), stride=(1, 1))
            (act): SiLU(inplace=True)
          )
          (cv3): Conv(
            (conv): Conv2d(128, 128, kernel_size=(1, 1), stride=(1, 1))
            (act): SiLU(inplace=True)
          )
          (m): Sequential(
            (0): Bottleneck(
              (cv1): Conv(
                (conv): Conv2d(64, 64, kernel_size=(1, 1), stride=(1, 1))
                (act): SiLU(inplace=True)
              )
              (cv2): Conv(
                (conv): Conv2d(64, 64, kernel_size=(3, 3), stride=(1, 1), padding=(1, 1))
                (act): SiLU(inplace=True)
              )
            )
            (1): Bottleneck(
              (cv1): Conv(
                (conv): Conv2d(64, 64, kernel_size=(1, 1), stride=(1, 1))
                (act): SiLU(inplace=True)
              )
              (cv2): Conv(
                (conv): Conv2d(64, 64, kernel_size=(3, 3), stride=(1, 1), padding=(1, 1))
                (act): SiLU(inplace=True)
              )
            )
          )
        )
        (5): Conv(
          (conv): Conv2d(128, 256, kernel_size=(3, 3), stride=(2, 2), padding=(1, 1))
          (act): SiLU(inplace=True)
        )
        (6): C3(
          (cv1): Conv(
            (conv): Conv2d(256, 128, kernel_size=(1, 1), stride=(1, 1))
            (act): SiLU(inplace=True)
          )
          (cv2): Conv(
            (conv): Conv2d(256, 128, kernel_size=(1, 1), stride=(1, 1))
            (act): SiLU(inplace=True)
          )
          (cv3): Conv(
            (conv): Conv2d(256, 256, kernel_size=(1, 1), stride=(1, 1))
            (act): SiLU(inplace=True)
          )
          (m): Sequential(
            (0): Bottleneck(
              (cv1): Conv(
                (conv): Conv2d(128, 128, kernel_size=(1, 1), stride=(1, 1))
                (act): SiLU(inplace=True)
              )
              (cv2): Conv(
                (conv): Conv2d(128, 128, kernel_size=(3, 3), stride=(1, 1), padding=(1, 1))
                (act): SiLU(inplace=True)
              )
            )
            (1): Bottleneck(
              (cv1): Conv(
                (conv): Conv2d(128, 128, kernel_size=(1, 1), stride=(1, 1))
                (act): SiLU(inplace=True)
              )
              (cv2): Conv(
                (conv): Conv2d(128, 128, kernel_size=(3, 3), stride=(1, 1), padding=(1, 1))
                (act): SiLU(inplace=True)
              )
            )
            (2): Bottleneck(
              (cv1): Conv(
                (conv): Conv2d(128, 128, kernel_size=(1, 1), stride=(1, 1))
                (act): SiLU(inplace=True)
              )
              (cv2): Conv(
                (conv): Conv2d(128, 128, kernel_size=(3, 3), stride=(1, 1), padding=(1, 1))
                (act): SiLU(inplace=True)
              )
            )
          )
        )
        (7): Conv(
          (conv): Conv2d(256, 384, kernel_size=(3, 3), stride=(2, 2), padding=(1, 1))
          (act): SiLU(inplace=True)
        )
        (8): C3(
          (cv1): Conv(
            (conv): Conv2d(384, 192, kernel_size=(1, 1), stride=(1, 1))
            (act): SiLU(inplace=True)
          )
          (cv2): Conv(
            (conv): Conv2d(384, 192, kernel_size=(1, 1), stride=(1, 1))
            (act): SiLU(inplace=True)
          )
          (cv3): Conv(
            (conv): Conv2d(384, 384, kernel_size=(1, 1), stride=(1, 1))
            (act): SiLU(inplace=True)
          )
          (m): Sequential(
            (0): Bottleneck(
              (cv1): Conv(
                (conv): Conv2d(192, 192, kernel_size=(1, 1), stride=(1, 1))
                (act): SiLU(inplace=True)
              )
              (cv2): Conv(
                (conv): Conv2d(192, 192, kernel_size=(3, 3), stride=(1, 1), padding=(1, 1))
                (act): SiLU(inplace=True)
              )
            )
          )
        )
        (9): Conv(
          (conv): Conv2d(384, 512, kernel_size=(3, 3), stride=(2, 2), padding=(1, 1))
          (act): SiLU(inplace=True)
        )
        (10): C3(
          (cv1): Conv(
            (conv): Conv2d(512, 256, kernel_size=(1, 1), stride=(1, 1))
            (act): SiLU(inplace=True)
          )
          (cv2): Conv(
            (conv): Conv2d(512, 256, kernel_size=(1, 1), stride=(1, 1))
            (act): SiLU(inplace=True)
          )
          (cv3): Conv(
            (conv): Conv2d(512, 512, kernel_size=(1, 1), stride=(1, 1))
            (act): SiLU(inplace=True)
          )
          (m): Sequential(
            (0): Bottleneck(
              (cv1): Conv(
                (conv): Conv2d(256, 256, kernel_size=(1, 1), stride=(1, 1))
                (act): SiLU(inplace=True)
              )
              (cv2): Conv(
                (conv): Conv2d(256, 256, kernel_size=(3, 3), stride=(1, 1), padding=(1, 1))
                (act): SiLU(inplace=True)
              )
            )
          )
        )
        (11): SPPF(
          (cv1): Conv(
            (conv): Conv2d(512, 256, kernel_size=(1, 1), stride=(1, 1))
            (act): SiLU(inplace=True)
          )
          (cv2): Conv(
            (conv): Conv2d(1024, 512, kernel_size=(1, 1), stride=(1, 1))
            (act): SiLU(inplace=True)
          )
          (m): MaxPool2d(kernel_size=5, stride=1, padding=2, dilation=1, ceil_mode=False)
        )
        (12): Conv(
          (conv): Conv2d(512, 384, kernel_size=(1, 1), stride=(1, 1))
          (act): SiLU(inplace=True)
        )
        (13): Upsample(scale_factor=2.0, mode='nearest')
        (14): Concat()
        (15): C3(
          (cv1): Conv(
            (conv): Conv2d(768, 192, kernel_size=(1, 1), stride=(1, 1))
            (act): SiLU(inplace=True)
          )
          (cv2): Conv(
            (conv): Conv2d(768, 192, kernel_size=(1, 1), stride=(1, 1))
            (act): SiLU(inplace=True)
          )
          (cv3): Conv(
            (conv): Conv2d(384, 384, kernel_size=(1, 1), stride=(1, 1))
            (act): SiLU(inplace=True)
          )
          (m): Sequential(
            (0): Bottleneck(
              (cv1): Conv(
                (conv): Conv2d(192, 192, kernel_size=(1, 1), stride=(1, 1))
                (act): SiLU(inplace=True)
              )
              (cv2): Conv(
                (conv): Conv2d(192, 192, kernel_size=(3, 3), stride=(1, 1), padding=(1, 1))
                (act): SiLU(inplace=True)
              )
            )
          )
        )
        (16): Conv(
          (conv): Conv2d(384, 256, kernel_size=(1, 1), stride=(1, 1))
          (act): SiLU(inplace=True)
        )
        (17): Upsample(scale_factor=2.0, mode='nearest')
        (18): Concat()
        (19): C3(
          (cv1): Conv(
            (conv): Conv2d(512, 128, kernel_size=(1, 1), stride=(1, 1))
            (act): SiLU(inplace=True)
          )
          (cv2): Conv(
            (conv): Conv2d(512, 128, kernel_size=(1, 1), stride=(1, 1))
            (act): SiLU(inplace=True)
          )
          (cv3): Conv(
            (conv): Conv2d(256, 256, kernel_size=(1, 1), stride=(1, 1))
            (act): SiLU(inplace=True)
          )
          (m): Sequential(
            (0): Bottleneck(
              (cv1): Conv(
                (conv): Conv2d(128, 128, kernel_size=(1, 1), stride=(1, 1))
                (act): SiLU(inplace=True)
              )
              (cv2): Conv(
                (conv): Conv2d(128, 128, kernel_size=(3, 3), stride=(1, 1), padding=(1, 1))
                (act): SiLU(inplace=True)
              )
            )
          )
        )
        (20): Conv(
          (conv): Conv2d(256, 128, kernel_size=(1, 1), stride=(1, 1))
          (act): SiLU(inplace=True)
        )
        (21): Upsample(scale_factor=2.0, mode='nearest')
        (22): Concat()
        (23): C3(
          (cv1): Conv(
            (conv): Conv2d(256, 64, kernel_size=(1, 1), stride=(1, 1))
            (act): SiLU(inplace=True)
          )
          (cv2): Conv(
            (conv): Conv2d(256, 64, kernel_size=(1, 1), stride=(1, 1))
            (act): SiLU(inplace=True)
          )
          (cv3): Conv(
            (conv): Conv2d(128, 128, kernel_size=(1, 1), stride=(1, 1))
            (act): SiLU(inplace=True)
          )
          (m): Sequential(
            (0): Bottleneck(
              (cv1): Conv(
                (conv): Conv2d(64, 64, kernel_size=(1, 1), stride=(1, 1))
                (act): SiLU(inplace=True)
              )
              (cv2): Conv(
                (conv): Conv2d(64, 64, kernel_size=(3, 3), stride=(1, 1), padding=(1, 1))
                (act): SiLU(inplace=True)
              )
            )
          )
        )
        (24): Conv(
          (conv): Conv2d(128, 128, kernel_size=(3, 3), stride=(2, 2), padding=(1, 1))
          (act): SiLU(inplace=True)
        )
        (25): Concat()
        (26): C3(
          (cv1): Conv(
            (conv): Conv2d(256, 128, kernel_size=(1, 1), stride=(1, 1))
            (act): SiLU(inplace=True)
          )
          (cv2): Conv(
            (conv): Conv2d(256, 128, kernel_size=(1, 1), stride=(1, 1))
            (act): SiLU(inplace=True)
          )
          (cv3): Conv(
            (conv): Conv2d(256, 256, kernel_size=(1, 1), stride=(1, 1))
            (act): SiLU(inplace=True)
          )
          (m): Sequential(
            (0): Bottleneck(
              (cv1): Conv(
                (conv): Conv2d(128, 128, kernel_size=(1, 1), stride=(1, 1))
                (act): SiLU(inplace=True)
              )
              (cv2): Conv(
                (conv): Conv2d(128, 128, kernel_size=(3, 3), stride=(1, 1), padding=(1, 1))
                (act): SiLU(inplace=True)
              )
            )
          )
        )
        (27): Conv(
          (conv): Conv2d(256, 256, kernel_size=(3, 3), stride=(2, 2), padding=(1, 1))
          (act): SiLU(inplace=True)
        )
        (28): Concat()
        (29): C3(
          (cv1): Conv(
            (conv): Conv2d(512, 192, kernel_size=(1, 1), stride=(1, 1))
            (act): SiLU(inplace=True)
          )
          (cv2): Conv(
            (conv): Conv2d(512, 192, kernel_size=(1, 1), stride=(1, 1))
            (act): SiLU(inplace=True)
          )
          (cv3): Conv(
            (conv): Conv2d(384, 384, kernel_size=(1, 1), stride=(1, 1))
            (act): SiLU(inplace=True)
          )
          (m): Sequential(
            (0): Bottleneck(
              (cv1): Conv(
                (conv): Conv2d(192, 192, kernel_size=(1, 1), stride=(1, 1))
                (act): SiLU(inplace=True)
              )
              (cv2): Conv(
                (conv): Conv2d(192, 192, kernel_size=(3, 3), stride=(1, 1), padding=(1, 1))
                (act): SiLU(inplace=True)
              )
            )
          )
        )
        (30): Conv(
          (conv): Conv2d(384, 384, kernel_size=(3, 3), stride=(2, 2), padding=(1, 1))
          (act): SiLU(inplace=True)
        )
        (31): Concat()
        (32): C3(
          (cv1): Conv(
            (conv): Conv2d(768, 256, kernel_size=(1, 1), stride=(1, 1))
            (act): SiLU(inplace=True)
          )
          (cv2): Conv(
            (conv): Conv2d(768, 256, kernel_size=(1, 1), stride=(1, 1))
            (act): SiLU(inplace=True)
          )
          (cv3): Conv(
            (conv): Conv2d(512, 512, kernel_size=(1, 1), stride=(1, 1))
            (act): SiLU(inplace=True)
          )
          (m): Sequential(
            (0): Bottleneck(
              (cv1): Conv(
                (conv): Conv2d(256, 256, kernel_size=(1, 1), stride=(1, 1))
                (act): SiLU(inplace=True)
              )
              (cv2): Conv(
                (conv): Conv2d(256, 256, kernel_size=(3, 3), stride=(1, 1), padding=(1, 1))
                (act): SiLU(inplace=True)
              )
            )
          )
        )
        (33): Detect(
          (m): ModuleList(
            (0): Conv2d(128, 33, kernel_size=(1, 1), stride=(1, 1))
            (1): Conv2d(256, 33, kernel_size=(1, 1), stride=(1, 1))
            (2): Conv2d(384, 33, kernel_size=(1, 1), stride=(1, 1))
            (3): Conv2d(512, 33, kernel_size=(1, 1), stride=(1, 1))
          )
        )
      )
    )
  )
)
Error saving file: [Errno 13] Permission denied: 'c:\\Users\\aviel\\Desktop\\Projects\\Websites\\Fripen-AI\\Fripen-AI-2.0\\app\\static\\uploads\\blueberrytest.jpg'
Successful loading of model!
model: AutoShape(
  (model): DetectMultiBackend(
    (model): DetectionModel(
      (model): Sequential(
        (0): Conv(
          (conv): Conv2d(3, 32, kernel_size=(6, 6), stride=(2, 2), padding=(2, 2))
          (act): SiLU(inplace=True)
        )
        (1): Conv(
          (conv): Conv2d(32, 64, kernel_size=(3, 3), stride=(2, 2), padding=(1, 1))
          (act): SiLU(inplace=True)
        )
        (2): C3(
          (cv1): Conv(
            (conv): Conv2d(64, 32, kernel_size=(1, 1), stride=(1, 1))
            (act): SiLU(inplace=True)
          )
          (cv2): Conv(
            (conv): Conv2d(64, 32, kernel_size=(1, 1), stride=(1, 1))
            (act): SiLU(inplace=True)
          )
          (cv3): Conv(
            (conv): Conv2d(64, 64, kernel_size=(1, 1), stride=(1, 1))
            (act): SiLU(inplace=True)
          )
          (m): Sequential(
            (0): Bottleneck(
              (cv1): Conv(
                (conv): Conv2d(32, 32, kernel_size=(1, 1), stride=(1, 1))
                (act): SiLU(inplace=True)
              )
              (cv2): Conv(
                (conv): Conv2d(32, 32, kernel_size=(3, 3), stride=(1, 1), padding=(1, 1))
                (act): SiLU(inplace=True)
              )
            )
          )
        )
        (3): Conv(
          (conv): Conv2d(64, 128, kernel_size=(3, 3), stride=(2, 2), padding=(1, 1))
          (act): SiLU(inplace=True)
        )
        (4): C3(
          (cv1): Conv(
            (conv): Conv2d(128, 64, kernel_size=(1, 1), stride=(1, 1))
            (act): SiLU(inplace=True)
          )
          (cv2): Conv(
            (conv): Conv2d(128, 64, kernel_size=(1, 1), stride=(1, 1))
            (act): SiLU(inplace=True)
          )
          (cv3): Conv(
            (conv): Conv2d(128, 128, kernel_size=(1, 1), stride=(1, 1))
            (act): SiLU(inplace=True)
          )
          (m): Sequential(
            (0): Bottleneck(
              (cv1): Conv(
                (conv): Conv2d(64, 64, kernel_size=(1, 1), stride=(1, 1))
                (act): SiLU(inplace=True)
              )
              (cv2): Conv(
                (conv): Conv2d(64, 64, kernel_size=(3, 3), stride=(1, 1), padding=(1, 1))
                (act): SiLU(inplace=True)
              )
            )
            (1): Bottleneck(
              (cv1): Conv(
                (conv): Conv2d(64, 64, kernel_size=(1, 1), stride=(1, 1))
                (act): SiLU(inplace=True)
              )
              (cv2): Conv(
                (conv): Conv2d(64, 64, kernel_size=(3, 3), stride=(1, 1), padding=(1, 1))
                (act): SiLU(inplace=True)
              )
            )
          )
        )
        (5): Conv(
          (conv): Conv2d(128, 256, kernel_size=(3, 3), stride=(2, 2), padding=(1, 1))
          (act): SiLU(inplace=True)
        )
        (6): C3(
          (cv1): Conv(
            (conv): Conv2d(256, 128, kernel_size=(1, 1), stride=(1, 1))
            (act): SiLU(inplace=True)
          )
          (cv2): Conv(
            (conv): Conv2d(256, 128, kernel_size=(1, 1), stride=(1, 1))
            (act): SiLU(inplace=True)
          )
          (cv3): Conv(
            (conv): Conv2d(256, 256, kernel_size=(1, 1), stride=(1, 1))
            (act): SiLU(inplace=True)
          )
          (m): Sequential(
            (0): Bottleneck(
              (cv1): Conv(
                (conv): Conv2d(128, 128, kernel_size=(1, 1), stride=(1, 1))
                (act): SiLU(inplace=True)
              )
              (cv2): Conv(
                (conv): Conv2d(128, 128, kernel_size=(3, 3), stride=(1, 1), padding=(1, 1))
                (act): SiLU(inplace=True)
              )
            )
            (1): Bottleneck(
              (cv1): Conv(
                (conv): Conv2d(128, 128, kernel_size=(1, 1), stride=(1, 1))
                (act): SiLU(inplace=True)
              )
              (cv2): Conv(
                (conv): Conv2d(128, 128, kernel_size=(3, 3), stride=(1, 1), padding=(1, 1))
                (act): SiLU(inplace=True)
              )
            )
            (2): Bottleneck(
              (cv1): Conv(
                (conv): Conv2d(128, 128, kernel_size=(1, 1), stride=(1, 1))
                (act): SiLU(inplace=True)
              )
              (cv2): Conv(
                (conv): Conv2d(128, 128, kernel_size=(3, 3), stride=(1, 1), padding=(1, 1))
                (act): SiLU(inplace=True)
              )
            )
          )
        )
        (7): Conv(
          (conv): Conv2d(256, 384, kernel_size=(3, 3), stride=(2, 2), padding=(1, 1))
          (act): SiLU(inplace=True)
        )
        (8): C3(
          (cv1): Conv(
            (conv): Conv2d(384, 192, kernel_size=(1, 1), stride=(1, 1))
            (act): SiLU(inplace=True)
          )
          (cv2): Conv(
            (conv): Conv2d(384, 192, kernel_size=(1, 1), stride=(1, 1))
            (act): SiLU(inplace=True)
          )
          (cv3): Conv(
            (conv): Conv2d(384, 384, kernel_size=(1, 1), stride=(1, 1))
            (act): SiLU(inplace=True)
          )
          (m): Sequential(
            (0): Bottleneck(
              (cv1): Conv(
                (conv): Conv2d(192, 192, kernel_size=(1, 1), stride=(1, 1))
                (act): SiLU(inplace=True)
              )
              (cv2): Conv(
                (conv): Conv2d(192, 192, kernel_size=(3, 3), stride=(1, 1), padding=(1, 1))
                (act): SiLU(inplace=True)
              )
            )
          )
        )
        (9): Conv(
          (conv): Conv2d(384, 512, kernel_size=(3, 3), stride=(2, 2), padding=(1, 1))
          (act): SiLU(inplace=True)
        )
        (10): C3(
          (cv1): Conv(
            (conv): Conv2d(512, 256, kernel_size=(1, 1), stride=(1, 1))
            (act): SiLU(inplace=True)
          )
          (cv2): Conv(
            (conv): Conv2d(512, 256, kernel_size=(1, 1), stride=(1, 1))
            (act): SiLU(inplace=True)
          )
          (cv3): Conv(
            (conv): Conv2d(512, 512, kernel_size=(1, 1), stride=(1, 1))
            (act): SiLU(inplace=True)
          )
          (m): Sequential(
            (0): Bottleneck(
              (cv1): Conv(
                (conv): Conv2d(256, 256, kernel_size=(1, 1), stride=(1, 1))
                (act): SiLU(inplace=True)
              )
              (cv2): Conv(
                (conv): Conv2d(256, 256, kernel_size=(3, 3), stride=(1, 1), padding=(1, 1))
                (act): SiLU(inplace=True)
              )
            )
          )
        )
        (11): SPPF(
          (cv1): Conv(
            (conv): Conv2d(512, 256, kernel_size=(1, 1), stride=(1, 1))
            (act): SiLU(inplace=True)
          )
          (cv2): Conv(
            (conv): Conv2d(1024, 512, kernel_size=(1, 1), stride=(1, 1))
            (act): SiLU(inplace=True)
          )
          (m): MaxPool2d(kernel_size=5, stride=1, padding=2, dilation=1, ceil_mode=False)
        )
        (12): Conv(
          (conv): Conv2d(512, 384, kernel_size=(1, 1), stride=(1, 1))
          (act): SiLU(inplace=True)
        )
        (13): Upsample(scale_factor=2.0, mode='nearest')
        (14): Concat()
        (15): C3(
          (cv1): Conv(
            (conv): Conv2d(768, 192, kernel_size=(1, 1), stride=(1, 1))
            (act): SiLU(inplace=True)
          )
          (cv2): Conv(
            (conv): Conv2d(768, 192, kernel_size=(1, 1), stride=(1, 1))
            (act): SiLU(inplace=True)
          )
          (cv3): Conv(
            (conv): Conv2d(384, 384, kernel_size=(1, 1), stride=(1, 1))
            (act): SiLU(inplace=True)
          )
          (m): Sequential(
            (0): Bottleneck(
              (cv1): Conv(
                (conv): Conv2d(192, 192, kernel_size=(1, 1), stride=(1, 1))
                (act): SiLU(inplace=True)
              )
              (cv2): Conv(
                (conv): Conv2d(192, 192, kernel_size=(3, 3), stride=(1, 1), padding=(1, 1))
                (act): SiLU(inplace=True)
              )
            )
          )
        )
        (16): Conv(
          (conv): Conv2d(384, 256, kernel_size=(1, 1), stride=(1, 1))
          (act): SiLU(inplace=True)
        )
        (17): Upsample(scale_factor=2.0, mode='nearest')
        (18): Concat()
        (19): C3(
          (cv1): Conv(
            (conv): Conv2d(512, 128, kernel_size=(1, 1), stride=(1, 1))
            (act): SiLU(inplace=True)
          )
          (cv2): Conv(
            (conv): Conv2d(512, 128, kernel_size=(1, 1), stride=(1, 1))
            (act): SiLU(inplace=True)
          )
          (cv3): Conv(
            (conv): Conv2d(256, 256, kernel_size=(1, 1), stride=(1, 1))
            (act): SiLU(inplace=True)
          )
          (m): Sequential(
            (0): Bottleneck(
              (cv1): Conv(
                (conv): Conv2d(128, 128, kernel_size=(1, 1), stride=(1, 1))
                (act): SiLU(inplace=True)
              )
              (cv2): Conv(
                (conv): Conv2d(128, 128, kernel_size=(3, 3), stride=(1, 1), padding=(1, 1))
                (act): SiLU(inplace=True)
              )
            )
          )
        )
        (20): Conv(
          (conv): Conv2d(256, 128, kernel_size=(1, 1), stride=(1, 1))
          (act): SiLU(inplace=True)
        )
        (21): Upsample(scale_factor=2.0, mode='nearest')
        (22): Concat()
        (23): C3(
          (cv1): Conv(
            (conv): Conv2d(256, 64, kernel_size=(1, 1), stride=(1, 1))
            (act): SiLU(inplace=True)
          )
          (cv2): Conv(
            (conv): Conv2d(256, 64, kernel_size=(1, 1), stride=(1, 1))
            (act): SiLU(inplace=True)
          )
          (cv3): Conv(
            (conv): Conv2d(128, 128, kernel_size=(1, 1), stride=(1, 1))
            (act): SiLU(inplace=True)
          )
          (m): Sequential(
            (0): Bottleneck(
              (cv1): Conv(
                (conv): Conv2d(64, 64, kernel_size=(1, 1), stride=(1, 1))
                (act): SiLU(inplace=True)
              )
              (cv2): Conv(
                (conv): Conv2d(64, 64, kernel_size=(3, 3), stride=(1, 1), padding=(1, 1))
                (act): SiLU(inplace=True)
              )
            )
          )
        )
        (24): Conv(
          (conv): Conv2d(128, 128, kernel_size=(3, 3), stride=(2, 2), padding=(1, 1))
          (act): SiLU(inplace=True)
        )
        (25): Concat()
        (26): C3(
          (cv1): Conv(
            (conv): Conv2d(256, 128, kernel_size=(1, 1), stride=(1, 1))
            (act): SiLU(inplace=True)
          )
          (cv2): Conv(
            (conv): Conv2d(256, 128, kernel_size=(1, 1), stride=(1, 1))
            (act): SiLU(inplace=True)
          )
          (cv3): Conv(
            (conv): Conv2d(256, 256, kernel_size=(1, 1), stride=(1, 1))
            (act): SiLU(inplace=True)
          )
          (m): Sequential(
            (0): Bottleneck(
              (cv1): Conv(
                (conv): Conv2d(128, 128, kernel_size=(1, 1), stride=(1, 1))
                (act): SiLU(inplace=True)
              )
              (cv2): Conv(
                (conv): Conv2d(128, 128, kernel_size=(3, 3), stride=(1, 1), padding=(1, 1))
                (act): SiLU(inplace=True)
              )
            )
          )
        )
        (27): Conv(
          (conv): Conv2d(256, 256, kernel_size=(3, 3), stride=(2, 2), padding=(1, 1))
          (act): SiLU(inplace=True)
        )
        (28): Concat()
        (29): C3(
          (cv1): Conv(
            (conv): Conv2d(512, 192, kernel_size=(1, 1), stride=(1, 1))
            (act): SiLU(inplace=True)
          )
          (cv2): Conv(
            (conv): Conv2d(512, 192, kernel_size=(1, 1), stride=(1, 1))
            (act): SiLU(inplace=True)
          )
          (cv3): Conv(
            (conv): Conv2d(384, 384, kernel_size=(1, 1), stride=(1, 1))
            (act): SiLU(inplace=True)
          )
          (m): Sequential(
            (0): Bottleneck(
              (cv1): Conv(
                (conv): Conv2d(192, 192, kernel_size=(1, 1), stride=(1, 1))
                (act): SiLU(inplace=True)
              )
              (cv2): Conv(
                (conv): Conv2d(192, 192, kernel_size=(3, 3), stride=(1, 1), padding=(1, 1))
                (act): SiLU(inplace=True)
              )
            )
          )
        )
        (30): Conv(
          (conv): Conv2d(384, 384, kernel_size=(3, 3), stride=(2, 2), padding=(1, 1))
          (act): SiLU(inplace=True)
        )
        (31): Concat()
        (32): C3(
          (cv1): Conv(
            (conv): Conv2d(768, 256, kernel_size=(1, 1), stride=(1, 1))
            (act): SiLU(inplace=True)
          )
          (cv2): Conv(
            (conv): Conv2d(768, 256, kernel_size=(1, 1), stride=(1, 1))
            (act): SiLU(inplace=True)
          )
          (cv3): Conv(
            (conv): Conv2d(512, 512, kernel_size=(1, 1), stride=(1, 1))
            (act): SiLU(inplace=True)
          )
          (m): Sequential(
            (0): Bottleneck(
              (cv1): Conv(
                (conv): Conv2d(256, 256, kernel_size=(1, 1), stride=(1, 1))
                (act): SiLU(inplace=True)
              )
              (cv2): Conv(
                (conv): Conv2d(256, 256, kernel_size=(3, 3), stride=(1, 1), padding=(1, 1))
                (act): SiLU(inplace=True)
              )
            )
          )
        )
        (33): Detect(
          (m): ModuleList(
            (0): Conv2d(128, 33, kernel_size=(1, 1), stride=(1, 1))
            (1): Conv2d(256, 33, kernel_size=(1, 1), stride=(1, 1))
            (2): Conv2d(384, 33, kernel_size=(1, 1), stride=(1, 1))
            (3): Conv2d(512, 33, kernel_size=(1, 1), stride=(1, 1))
          )
        )
      )
    )
  )
)
Error saving file: [WinError 5] Access is denied: 'c:\\Users\\aviel\\Desktop\\Projects\\Websites\\Fripen-AI\\Fripen-AI-2.0\\app\\static\\uploads\\blueberrytest.jpg'
Successful loading of model!
model: AutoShape(
  (model): DetectMultiBackend(
    (model): DetectionModel(
      (model): Sequential(
        (0): Conv(
          (conv): Conv2d(3, 32, kernel_size=(6, 6), stride=(2, 2), padding=(2, 2))
          (act): SiLU(inplace=True)
        )
        (1): Conv(
          (conv): Conv2d(32, 64, kernel_size=(3, 3), stride=(2, 2), padding=(1, 1))
          (act): SiLU(inplace=True)
        )
        (2): C3(
          (cv1): Conv(
            (conv): Conv2d(64, 32, kernel_size=(1, 1), stride=(1, 1))
            (act): SiLU(inplace=True)
          )
          (cv2): Conv(
            (conv): Conv2d(64, 32, kernel_size=(1, 1), stride=(1, 1))
            (act): SiLU(inplace=True)
          )
          (cv3): Conv(
            (conv): Conv2d(64, 64, kernel_size=(1, 1), stride=(1, 1))
            (act): SiLU(inplace=True)
          )
          (m): Sequential(
            (0): Bottleneck(
              (cv1): Conv(
                (conv): Conv2d(32, 32, kernel_size=(1, 1), stride=(1, 1))
                (act): SiLU(inplace=True)
              )
              (cv2): Conv(
                (conv): Conv2d(32, 32, kernel_size=(3, 3), stride=(1, 1), padding=(1, 1))
                (act): SiLU(inplace=True)
              )
            )
          )
        )
        (3): Conv(
          (conv): Conv2d(64, 128, kernel_size=(3, 3), stride=(2, 2), padding=(1, 1))
          (act): SiLU(inplace=True)
        )
        (4): C3(
          (cv1): Conv(
            (conv): Conv2d(128, 64, kernel_size=(1, 1), stride=(1, 1))
            (act): SiLU(inplace=True)
          )
          (cv2): Conv(
            (conv): Conv2d(128, 64, kernel_size=(1, 1), stride=(1, 1))
            (act): SiLU(inplace=True)
          )
          (cv3): Conv(
            (conv): Conv2d(128, 128, kernel_size=(1, 1), stride=(1, 1))
            (act): SiLU(inplace=True)
          )
          (m): Sequential(
            (0): Bottleneck(
              (cv1): Conv(
                (conv): Conv2d(64, 64, kernel_size=(1, 1), stride=(1, 1))
                (act): SiLU(inplace=True)
              )
              (cv2): Conv(
                (conv): Conv2d(64, 64, kernel_size=(3, 3), stride=(1, 1), padding=(1, 1))
                (act): SiLU(inplace=True)
              )
            )
            (1): Bottleneck(
              (cv1): Conv(
                (conv): Conv2d(64, 64, kernel_size=(1, 1), stride=(1, 1))
                (act): SiLU(inplace=True)
              )
              (cv2): Conv(
                (conv): Conv2d(64, 64, kernel_size=(3, 3), stride=(1, 1), padding=(1, 1))
                (act): SiLU(inplace=True)
              )
            )
          )
        )
        (5): Conv(
          (conv): Conv2d(128, 256, kernel_size=(3, 3), stride=(2, 2), padding=(1, 1))
          (act): SiLU(inplace=True)
        )
        (6): C3(
          (cv1): Conv(
            (conv): Conv2d(256, 128, kernel_size=(1, 1), stride=(1, 1))
            (act): SiLU(inplace=True)
          )
          (cv2): Conv(
            (conv): Conv2d(256, 128, kernel_size=(1, 1), stride=(1, 1))
            (act): SiLU(inplace=True)
          )
          (cv3): Conv(
            (conv): Conv2d(256, 256, kernel_size=(1, 1), stride=(1, 1))
            (act): SiLU(inplace=True)
          )
          (m): Sequential(
            (0): Bottleneck(
              (cv1): Conv(
                (conv): Conv2d(128, 128, kernel_size=(1, 1), stride=(1, 1))
                (act): SiLU(inplace=True)
              )
              (cv2): Conv(
                (conv): Conv2d(128, 128, kernel_size=(3, 3), stride=(1, 1), padding=(1, 1))
                (act): SiLU(inplace=True)
              )
            )
            (1): Bottleneck(
              (cv1): Conv(
                (conv): Conv2d(128, 128, kernel_size=(1, 1), stride=(1, 1))
                (act): SiLU(inplace=True)
              )
              (cv2): Conv(
                (conv): Conv2d(128, 128, kernel_size=(3, 3), stride=(1, 1), padding=(1, 1))
                (act): SiLU(inplace=True)
              )
            )
            (2): Bottleneck(
              (cv1): Conv(
                (conv): Conv2d(128, 128, kernel_size=(1, 1), stride=(1, 1))
                (act): SiLU(inplace=True)
              )
              (cv2): Conv(
                (conv): Conv2d(128, 128, kernel_size=(3, 3), stride=(1, 1), padding=(1, 1))
                (act): SiLU(inplace=True)
              )
            )
          )
        )
        (7): Conv(
          (conv): Conv2d(256, 384, kernel_size=(3, 3), stride=(2, 2), padding=(1, 1))
          (act): SiLU(inplace=True)
        )
        (8): C3(
          (cv1): Conv(
            (conv): Conv2d(384, 192, kernel_size=(1, 1), stride=(1, 1))
            (act): SiLU(inplace=True)
          )
          (cv2): Conv(
            (conv): Conv2d(384, 192, kernel_size=(1, 1), stride=(1, 1))
            (act): SiLU(inplace=True)
          )
          (cv3): Conv(
            (conv): Conv2d(384, 384, kernel_size=(1, 1), stride=(1, 1))
            (act): SiLU(inplace=True)
          )
          (m): Sequential(
            (0): Bottleneck(
              (cv1): Conv(
                (conv): Conv2d(192, 192, kernel_size=(1, 1), stride=(1, 1))
                (act): SiLU(inplace=True)
              )
              (cv2): Conv(
                (conv): Conv2d(192, 192, kernel_size=(3, 3), stride=(1, 1), padding=(1, 1))
                (act): SiLU(inplace=True)
              )
            )
          )
        )
        (9): Conv(
          (conv): Conv2d(384, 512, kernel_size=(3, 3), stride=(2, 2), padding=(1, 1))
          (act): SiLU(inplace=True)
        )
        (10): C3(
          (cv1): Conv(
            (conv): Conv2d(512, 256, kernel_size=(1, 1), stride=(1, 1))
            (act): SiLU(inplace=True)
          )
          (cv2): Conv(
            (conv): Conv2d(512, 256, kernel_size=(1, 1), stride=(1, 1))
            (act): SiLU(inplace=True)
          )
          (cv3): Conv(
            (conv): Conv2d(512, 512, kernel_size=(1, 1), stride=(1, 1))
            (act): SiLU(inplace=True)
          )
          (m): Sequential(
            (0): Bottleneck(
              (cv1): Conv(
                (conv): Conv2d(256, 256, kernel_size=(1, 1), stride=(1, 1))
                (act): SiLU(inplace=True)
              )
              (cv2): Conv(
                (conv): Conv2d(256, 256, kernel_size=(3, 3), stride=(1, 1), padding=(1, 1))
                (act): SiLU(inplace=True)
              )
            )
          )
        )
        (11): SPPF(
          (cv1): Conv(
            (conv): Conv2d(512, 256, kernel_size=(1, 1), stride=(1, 1))
            (act): SiLU(inplace=True)
          )
          (cv2): Conv(
            (conv): Conv2d(1024, 512, kernel_size=(1, 1), stride=(1, 1))
            (act): SiLU(inplace=True)
          )
          (m): MaxPool2d(kernel_size=5, stride=1, padding=2, dilation=1, ceil_mode=False)
        )
        (12): Conv(
          (conv): Conv2d(512, 384, kernel_size=(1, 1), stride=(1, 1))
          (act): SiLU(inplace=True)
        )
        (13): Upsample(scale_factor=2.0, mode='nearest')
        (14): Concat()
        (15): C3(
          (cv1): Conv(
            (conv): Conv2d(768, 192, kernel_size=(1, 1), stride=(1, 1))
            (act): SiLU(inplace=True)
          )
          (cv2): Conv(
            (conv): Conv2d(768, 192, kernel_size=(1, 1), stride=(1, 1))
            (act): SiLU(inplace=True)
          )
          (cv3): Conv(
            (conv): Conv2d(384, 384, kernel_size=(1, 1), stride=(1, 1))
            (act): SiLU(inplace=True)
          )
          (m): Sequential(
            (0): Bottleneck(
              (cv1): Conv(
                (conv): Conv2d(192, 192, kernel_size=(1, 1), stride=(1, 1))
                (act): SiLU(inplace=True)
              )
              (cv2): Conv(
                (conv): Conv2d(192, 192, kernel_size=(3, 3), stride=(1, 1), padding=(1, 1))
                (act): SiLU(inplace=True)
              )
            )
          )
        )
        (16): Conv(
          (conv): Conv2d(384, 256, kernel_size=(1, 1), stride=(1, 1))
          (act): SiLU(inplace=True)
        )
        (17): Upsample(scale_factor=2.0, mode='nearest')
        (18): Concat()
        (19): C3(
          (cv1): Conv(
            (conv): Conv2d(512, 128, kernel_size=(1, 1), stride=(1, 1))
            (act): SiLU(inplace=True)
          )
          (cv2): Conv(
            (conv): Conv2d(512, 128, kernel_size=(1, 1), stride=(1, 1))
            (act): SiLU(inplace=True)
          )
          (cv3): Conv(
            (conv): Conv2d(256, 256, kernel_size=(1, 1), stride=(1, 1))
            (act): SiLU(inplace=True)
          )
          (m): Sequential(
            (0): Bottleneck(
              (cv1): Conv(
                (conv): Conv2d(128, 128, kernel_size=(1, 1), stride=(1, 1))
                (act): SiLU(inplace=True)
              )
              (cv2): Conv(
                (conv): Conv2d(128, 128, kernel_size=(3, 3), stride=(1, 1), padding=(1, 1))
                (act): SiLU(inplace=True)
              )
            )
          )
        )
        (20): Conv(
          (conv): Conv2d(256, 128, kernel_size=(1, 1), stride=(1, 1))
          (act): SiLU(inplace=True)
        )
        (21): Upsample(scale_factor=2.0, mode='nearest')
        (22): Concat()
        (23): C3(
          (cv1): Conv(
            (conv): Conv2d(256, 64, kernel_size=(1, 1), stride=(1, 1))
            (act): SiLU(inplace=True)
          )
          (cv2): Conv(
            (conv): Conv2d(256, 64, kernel_size=(1, 1), stride=(1, 1))
            (act): SiLU(inplace=True)
          )
          (cv3): Conv(
            (conv): Conv2d(128, 128, kernel_size=(1, 1), stride=(1, 1))
            (act): SiLU(inplace=True)
          )
          (m): Sequential(
            (0): Bottleneck(
              (cv1): Conv(
                (conv): Conv2d(64, 64, kernel_size=(1, 1), stride=(1, 1))
                (act): SiLU(inplace=True)
              )
              (cv2): Conv(
                (conv): Conv2d(64, 64, kernel_size=(3, 3), stride=(1, 1), padding=(1, 1))
                (act): SiLU(inplace=True)
              )
            )
          )
        )
        (24): Conv(
          (conv): Conv2d(128, 128, kernel_size=(3, 3), stride=(2, 2), padding=(1, 1))
          (act): SiLU(inplace=True)
        )
        (25): Concat()
        (26): C3(
          (cv1): Conv(
            (conv): Conv2d(256, 128, kernel_size=(1, 1), stride=(1, 1))
            (act): SiLU(inplace=True)
          )
          (cv2): Conv(
            (conv): Conv2d(256, 128, kernel_size=(1, 1), stride=(1, 1))
            (act): SiLU(inplace=True)
          )
          (cv3): Conv(
            (conv): Conv2d(256, 256, kernel_size=(1, 1), stride=(1, 1))
            (act): SiLU(inplace=True)
          )
          (m): Sequential(
            (0): Bottleneck(
              (cv1): Conv(
                (conv): Conv2d(128, 128, kernel_size=(1, 1), stride=(1, 1))
                (act): SiLU(inplace=True)
              )
              (cv2): Conv(
                (conv): Conv2d(128, 128, kernel_size=(3, 3), stride=(1, 1), padding=(1, 1))
                (act): SiLU(inplace=True)
              )
            )
          )
        )
        (27): Conv(
          (conv): Conv2d(256, 256, kernel_size=(3, 3), stride=(2, 2), padding=(1, 1))
          (act): SiLU(inplace=True)
        )
        (28): Concat()
        (29): C3(
          (cv1): Conv(
            (conv): Conv2d(512, 192, kernel_size=(1, 1), stride=(1, 1))
            (act): SiLU(inplace=True)
          )
          (cv2): Conv(
            (conv): Conv2d(512, 192, kernel_size=(1, 1), stride=(1, 1))
            (act): SiLU(inplace=True)
          )
          (cv3): Conv(
            (conv): Conv2d(384, 384, kernel_size=(1, 1), stride=(1, 1))
            (act): SiLU(inplace=True)
          )
          (m): Sequential(
            (0): Bottleneck(
              (cv1): Conv(
                (conv): Conv2d(192, 192, kernel_size=(1, 1), stride=(1, 1))
                (act): SiLU(inplace=True)
              )
              (cv2): Conv(
                (conv): Conv2d(192, 192, kernel_size=(3, 3), stride=(1, 1), padding=(1, 1))
                (act): SiLU(inplace=True)
              )
            )
          )
        )
        (30): Conv(
          (conv): Conv2d(384, 384, kernel_size=(3, 3), stride=(2, 2), padding=(1, 1))
          (act): SiLU(inplace=True)
        )
        (31): Concat()
        (32): C3(
          (cv1): Conv(
            (conv): Conv2d(768, 256, kernel_size=(1, 1), stride=(1, 1))
            (act): SiLU(inplace=True)
          )
          (cv2): Conv(
            (conv): Conv2d(768, 256, kernel_size=(1, 1), stride=(1, 1))
            (act): SiLU(inplace=True)
          )
          (cv3): Conv(
            (conv): Conv2d(512, 512, kernel_size=(1, 1), stride=(1, 1))
            (act): SiLU(inplace=True)
          )
          (m): Sequential(
            (0): Bottleneck(
              (cv1): Conv(
                (conv): Conv2d(256, 256, kernel_size=(1, 1), stride=(1, 1))
                (act): SiLU(inplace=True)
              )
              (cv2): Conv(
                (conv): Conv2d(256, 256, kernel_size=(3, 3), stride=(1, 1), padding=(1, 1))
                (act): SiLU(inplace=True)
              )
            )
          )
        )
        (33): Detect(
          (m): ModuleList(
            (0): Conv2d(128, 33, kernel_size=(1, 1), stride=(1, 1))
            (1): Conv2d(256, 33, kernel_size=(1, 1), stride=(1, 1))
            (2): Conv2d(384, 33, kernel_size=(1, 1), stride=(1, 1))
            (3): Conv2d(512, 33, kernel_size=(1, 1), stride=(1, 1))
          )
        )
      )
    )
  )
)
Current location!: c:\Users\aviel\Desktop\Projects\Websites\Fripen-AI\Fripen-AI-2.0\app
Image path: c:\Users\aviel\Desktop\Projects\Websites\Fripen-AI\Fripen-AI-2.0\app\static\uploads\blueberrytest.jpg
Ran through results
Image path: None
Image path entered into if loop
old image removed
Results saved into: c:\Users\aviel\Desktop\Projects\Websites\Fripen-AI\Fripen-AI-2.0\app\static\uploads\blueberrytest.jpg
AT the RETURN STATEMENT
Error saving file: [WinError 5] Access is denied: 'c:\\Users\\aviel\\Desktop\\Projects\\Websites\\Fripen-AI\\Fripen-AI-2.0\\app\\static\\uploads\\blueberrytest.jpg'
Successful loading of model!
model: AutoShape(
  (model): DetectMultiBackend(
    (model): DetectionModel(
      (model): Sequential(
        (0): Conv(
          (conv): Conv2d(3, 32, kernel_size=(6, 6), stride=(2, 2), padding=(2, 2))
          (act): SiLU(inplace=True)
        )
        (1): Conv(
          (conv): Conv2d(32, 64, kernel_size=(3, 3), stride=(2, 2), padding=(1, 1))
          (act): SiLU(inplace=True)
        )
        (2): C3(
          (cv1): Conv(
            (conv): Conv2d(64, 32, kernel_size=(1, 1), stride=(1, 1))
            (act): SiLU(inplace=True)
          )
          (cv2): Conv(
            (conv): Conv2d(64, 32, kernel_size=(1, 1), stride=(1, 1))
            (act): SiLU(inplace=True)
          )
          (cv3): Conv(
            (conv): Conv2d(64, 64, kernel_size=(1, 1), stride=(1, 1))
            (act): SiLU(inplace=True)
          )
          (m): Sequential(
            (0): Bottleneck(
              (cv1): Conv(
                (conv): Conv2d(32, 32, kernel_size=(1, 1), stride=(1, 1))
                (act): SiLU(inplace=True)
              )
              (cv2): Conv(
                (conv): Conv2d(32, 32, kernel_size=(3, 3), stride=(1, 1), padding=(1, 1))
                (act): SiLU(inplace=True)
              )
            )
          )
        )
        (3): Conv(
          (conv): Conv2d(64, 128, kernel_size=(3, 3), stride=(2, 2), padding=(1, 1))
          (act): SiLU(inplace=True)
        )
        (4): C3(
          (cv1): Conv(
            (conv): Conv2d(128, 64, kernel_size=(1, 1), stride=(1, 1))
            (act): SiLU(inplace=True)
          )
          (cv2): Conv(
            (conv): Conv2d(128, 64, kernel_size=(1, 1), stride=(1, 1))
            (act): SiLU(inplace=True)
          )
          (cv3): Conv(
            (conv): Conv2d(128, 128, kernel_size=(1, 1), stride=(1, 1))
            (act): SiLU(inplace=True)
          )
          (m): Sequential(
            (0): Bottleneck(
              (cv1): Conv(
                (conv): Conv2d(64, 64, kernel_size=(1, 1), stride=(1, 1))
                (act): SiLU(inplace=True)
              )
              (cv2): Conv(
                (conv): Conv2d(64, 64, kernel_size=(3, 3), stride=(1, 1), padding=(1, 1))
                (act): SiLU(inplace=True)
              )
            )
            (1): Bottleneck(
              (cv1): Conv(
                (conv): Conv2d(64, 64, kernel_size=(1, 1), stride=(1, 1))
                (act): SiLU(inplace=True)
              )
              (cv2): Conv(
                (conv): Conv2d(64, 64, kernel_size=(3, 3), stride=(1, 1), padding=(1, 1))
                (act): SiLU(inplace=True)
              )
            )
          )
        )
        (5): Conv(
          (conv): Conv2d(128, 256, kernel_size=(3, 3), stride=(2, 2), padding=(1, 1))
          (act): SiLU(inplace=True)
        )
        (6): C3(
          (cv1): Conv(
            (conv): Conv2d(256, 128, kernel_size=(1, 1), stride=(1, 1))
            (act): SiLU(inplace=True)
          )
          (cv2): Conv(
            (conv): Conv2d(256, 128, kernel_size=(1, 1), stride=(1, 1))
            (act): SiLU(inplace=True)
          )
          (cv3): Conv(
            (conv): Conv2d(256, 256, kernel_size=(1, 1), stride=(1, 1))
            (act): SiLU(inplace=True)
          )
          (m): Sequential(
            (0): Bottleneck(
              (cv1): Conv(
                (conv): Conv2d(128, 128, kernel_size=(1, 1), stride=(1, 1))
                (act): SiLU(inplace=True)
              )
              (cv2): Conv(
                (conv): Conv2d(128, 128, kernel_size=(3, 3), stride=(1, 1), padding=(1, 1))
                (act): SiLU(inplace=True)
              )
            )
            (1): Bottleneck(
              (cv1): Conv(
                (conv): Conv2d(128, 128, kernel_size=(1, 1), stride=(1, 1))
                (act): SiLU(inplace=True)
              )
              (cv2): Conv(
                (conv): Conv2d(128, 128, kernel_size=(3, 3), stride=(1, 1), padding=(1, 1))
                (act): SiLU(inplace=True)
              )
            )
            (2): Bottleneck(
              (cv1): Conv(
                (conv): Conv2d(128, 128, kernel_size=(1, 1), stride=(1, 1))
                (act): SiLU(inplace=True)
              )
              (cv2): Conv(
                (conv): Conv2d(128, 128, kernel_size=(3, 3), stride=(1, 1), padding=(1, 1))
                (act): SiLU(inplace=True)
              )
            )
          )
        )
        (7): Conv(
          (conv): Conv2d(256, 384, kernel_size=(3, 3), stride=(2, 2), padding=(1, 1))
          (act): SiLU(inplace=True)
        )
        (8): C3(
          (cv1): Conv(
            (conv): Conv2d(384, 192, kernel_size=(1, 1), stride=(1, 1))
            (act): SiLU(inplace=True)
          )
          (cv2): Conv(
            (conv): Conv2d(384, 192, kernel_size=(1, 1), stride=(1, 1))
            (act): SiLU(inplace=True)
          )
          (cv3): Conv(
            (conv): Conv2d(384, 384, kernel_size=(1, 1), stride=(1, 1))
            (act): SiLU(inplace=True)
          )
          (m): Sequential(
            (0): Bottleneck(
              (cv1): Conv(
                (conv): Conv2d(192, 192, kernel_size=(1, 1), stride=(1, 1))
                (act): SiLU(inplace=True)
              )
              (cv2): Conv(
                (conv): Conv2d(192, 192, kernel_size=(3, 3), stride=(1, 1), padding=(1, 1))
                (act): SiLU(inplace=True)
              )
            )
          )
        )
        (9): Conv(
          (conv): Conv2d(384, 512, kernel_size=(3, 3), stride=(2, 2), padding=(1, 1))
          (act): SiLU(inplace=True)
        )
        (10): C3(
          (cv1): Conv(
            (conv): Conv2d(512, 256, kernel_size=(1, 1), stride=(1, 1))
            (act): SiLU(inplace=True)
          )
          (cv2): Conv(
            (conv): Conv2d(512, 256, kernel_size=(1, 1), stride=(1, 1))
            (act): SiLU(inplace=True)
          )
          (cv3): Conv(
            (conv): Conv2d(512, 512, kernel_size=(1, 1), stride=(1, 1))
            (act): SiLU(inplace=True)
          )
          (m): Sequential(
            (0): Bottleneck(
              (cv1): Conv(
                (conv): Conv2d(256, 256, kernel_size=(1, 1), stride=(1, 1))
                (act): SiLU(inplace=True)
              )
              (cv2): Conv(
                (conv): Conv2d(256, 256, kernel_size=(3, 3), stride=(1, 1), padding=(1, 1))
                (act): SiLU(inplace=True)
              )
            )
          )
        )
        (11): SPPF(
          (cv1): Conv(
            (conv): Conv2d(512, 256, kernel_size=(1, 1), stride=(1, 1))
            (act): SiLU(inplace=True)
          )
          (cv2): Conv(
            (conv): Conv2d(1024, 512, kernel_size=(1, 1), stride=(1, 1))
            (act): SiLU(inplace=True)
          )
          (m): MaxPool2d(kernel_size=5, stride=1, padding=2, dilation=1, ceil_mode=False)
        )
        (12): Conv(
          (conv): Conv2d(512, 384, kernel_size=(1, 1), stride=(1, 1))
          (act): SiLU(inplace=True)
        )
        (13): Upsample(scale_factor=2.0, mode='nearest')
        (14): Concat()
        (15): C3(
          (cv1): Conv(
            (conv): Conv2d(768, 192, kernel_size=(1, 1), stride=(1, 1))
            (act): SiLU(inplace=True)
          )
          (cv2): Conv(
            (conv): Conv2d(768, 192, kernel_size=(1, 1), stride=(1, 1))
            (act): SiLU(inplace=True)
          )
          (cv3): Conv(
            (conv): Conv2d(384, 384, kernel_size=(1, 1), stride=(1, 1))
            (act): SiLU(inplace=True)
          )
          (m): Sequential(
            (0): Bottleneck(
              (cv1): Conv(
                (conv): Conv2d(192, 192, kernel_size=(1, 1), stride=(1, 1))
                (act): SiLU(inplace=True)
              )
              (cv2): Conv(
                (conv): Conv2d(192, 192, kernel_size=(3, 3), stride=(1, 1), padding=(1, 1))
                (act): SiLU(inplace=True)
              )
            )
          )
        )
        (16): Conv(
          (conv): Conv2d(384, 256, kernel_size=(1, 1), stride=(1, 1))
          (act): SiLU(inplace=True)
        )
        (17): Upsample(scale_factor=2.0, mode='nearest')
        (18): Concat()
        (19): C3(
          (cv1): Conv(
            (conv): Conv2d(512, 128, kernel_size=(1, 1), stride=(1, 1))
            (act): SiLU(inplace=True)
          )
          (cv2): Conv(
            (conv): Conv2d(512, 128, kernel_size=(1, 1), stride=(1, 1))
            (act): SiLU(inplace=True)
          )
          (cv3): Conv(
            (conv): Conv2d(256, 256, kernel_size=(1, 1), stride=(1, 1))
            (act): SiLU(inplace=True)
          )
          (m): Sequential(
            (0): Bottleneck(
              (cv1): Conv(
                (conv): Conv2d(128, 128, kernel_size=(1, 1), stride=(1, 1))
                (act): SiLU(inplace=True)
              )
              (cv2): Conv(
                (conv): Conv2d(128, 128, kernel_size=(3, 3), stride=(1, 1), padding=(1, 1))
                (act): SiLU(inplace=True)
              )
            )
          )
        )
        (20): Conv(
          (conv): Conv2d(256, 128, kernel_size=(1, 1), stride=(1, 1))
          (act): SiLU(inplace=True)
        )
        (21): Upsample(scale_factor=2.0, mode='nearest')
        (22): Concat()
        (23): C3(
          (cv1): Conv(
            (conv): Conv2d(256, 64, kernel_size=(1, 1), stride=(1, 1))
            (act): SiLU(inplace=True)
          )
          (cv2): Conv(
            (conv): Conv2d(256, 64, kernel_size=(1, 1), stride=(1, 1))
            (act): SiLU(inplace=True)
          )
          (cv3): Conv(
            (conv): Conv2d(128, 128, kernel_size=(1, 1), stride=(1, 1))
            (act): SiLU(inplace=True)
          )
          (m): Sequential(
            (0): Bottleneck(
              (cv1): Conv(
                (conv): Conv2d(64, 64, kernel_size=(1, 1), stride=(1, 1))
                (act): SiLU(inplace=True)
              )
              (cv2): Conv(
                (conv): Conv2d(64, 64, kernel_size=(3, 3), stride=(1, 1), padding=(1, 1))
                (act): SiLU(inplace=True)
              )
            )
          )
        )
        (24): Conv(
          (conv): Conv2d(128, 128, kernel_size=(3, 3), stride=(2, 2), padding=(1, 1))
          (act): SiLU(inplace=True)
        )
        (25): Concat()
        (26): C3(
          (cv1): Conv(
            (conv): Conv2d(256, 128, kernel_size=(1, 1), stride=(1, 1))
            (act): SiLU(inplace=True)
          )
          (cv2): Conv(
            (conv): Conv2d(256, 128, kernel_size=(1, 1), stride=(1, 1))
            (act): SiLU(inplace=True)
          )
          (cv3): Conv(
            (conv): Conv2d(256, 256, kernel_size=(1, 1), stride=(1, 1))
            (act): SiLU(inplace=True)
          )
          (m): Sequential(
            (0): Bottleneck(
              (cv1): Conv(
                (conv): Conv2d(128, 128, kernel_size=(1, 1), stride=(1, 1))
                (act): SiLU(inplace=True)
              )
              (cv2): Conv(
                (conv): Conv2d(128, 128, kernel_size=(3, 3), stride=(1, 1), padding=(1, 1))
                (act): SiLU(inplace=True)
              )
            )
          )
        )
        (27): Conv(
          (conv): Conv2d(256, 256, kernel_size=(3, 3), stride=(2, 2), padding=(1, 1))
          (act): SiLU(inplace=True)
        )
        (28): Concat()
        (29): C3(
          (cv1): Conv(
            (conv): Conv2d(512, 192, kernel_size=(1, 1), stride=(1, 1))
            (act): SiLU(inplace=True)
          )
          (cv2): Conv(
            (conv): Conv2d(512, 192, kernel_size=(1, 1), stride=(1, 1))
            (act): SiLU(inplace=True)
          )
          (cv3): Conv(
            (conv): Conv2d(384, 384, kernel_size=(1, 1), stride=(1, 1))
            (act): SiLU(inplace=True)
          )
          (m): Sequential(
            (0): Bottleneck(
              (cv1): Conv(
                (conv): Conv2d(192, 192, kernel_size=(1, 1), stride=(1, 1))
                (act): SiLU(inplace=True)
              )
              (cv2): Conv(
                (conv): Conv2d(192, 192, kernel_size=(3, 3), stride=(1, 1), padding=(1, 1))
                (act): SiLU(inplace=True)
              )
            )
          )
        )
        (30): Conv(
          (conv): Conv2d(384, 384, kernel_size=(3, 3), stride=(2, 2), padding=(1, 1))
          (act): SiLU(inplace=True)
        )
        (31): Concat()
        (32): C3(
          (cv1): Conv(
            (conv): Conv2d(768, 256, kernel_size=(1, 1), stride=(1, 1))
            (act): SiLU(inplace=True)
          )
          (cv2): Conv(
            (conv): Conv2d(768, 256, kernel_size=(1, 1), stride=(1, 1))
            (act): SiLU(inplace=True)
          )
          (cv3): Conv(
            (conv): Conv2d(512, 512, kernel_size=(1, 1), stride=(1, 1))
            (act): SiLU(inplace=True)
          )
          (m): Sequential(
            (0): Bottleneck(
              (cv1): Conv(
                (conv): Conv2d(256, 256, kernel_size=(1, 1), stride=(1, 1))
                (act): SiLU(inplace=True)
              )
              (cv2): Conv(
                (conv): Conv2d(256, 256, kernel_size=(3, 3), stride=(1, 1), padding=(1, 1))
                (act): SiLU(inplace=True)
              )
            )
          )
        )
        (33): Detect(
          (m): ModuleList(
            (0): Conv2d(128, 33, kernel_size=(1, 1), stride=(1, 1))
            (1): Conv2d(256, 33, kernel_size=(1, 1), stride=(1, 1))
            (2): Conv2d(384, 33, kernel_size=(1, 1), stride=(1, 1))
            (3): Conv2d(512, 33, kernel_size=(1, 1), stride=(1, 1))
          )
        )
      )
    )
  )
)
Successful loading of model!
model: AutoShape(
  (model): DetectMultiBackend(
    (model): DetectionModel(
      (model): Sequential(
        (0): Conv(
          (conv): Conv2d(3, 32, kernel_size=(6, 6), stride=(2, 2), padding=(2, 2))
          (act): SiLU(inplace=True)
        )
        (1): Conv(
          (conv): Conv2d(32, 64, kernel_size=(3, 3), stride=(2, 2), padding=(1, 1))
          (act): SiLU(inplace=True)
        )
        (2): C3(
          (cv1): Conv(
            (conv): Conv2d(64, 32, kernel_size=(1, 1), stride=(1, 1))
            (act): SiLU(inplace=True)
          )
          (cv2): Conv(
            (conv): Conv2d(64, 32, kernel_size=(1, 1), stride=(1, 1))
            (act): SiLU(inplace=True)
          )
          (cv3): Conv(
            (conv): Conv2d(64, 64, kernel_size=(1, 1), stride=(1, 1))
            (act): SiLU(inplace=True)
          )
          (m): Sequential(
            (0): Bottleneck(
              (cv1): Conv(
                (conv): Conv2d(32, 32, kernel_size=(1, 1), stride=(1, 1))
                (act): SiLU(inplace=True)
              )
              (cv2): Conv(
                (conv): Conv2d(32, 32, kernel_size=(3, 3), stride=(1, 1), padding=(1, 1))
                (act): SiLU(inplace=True)
              )
            )
          )
        )
        (3): Conv(
          (conv): Conv2d(64, 128, kernel_size=(3, 3), stride=(2, 2), padding=(1, 1))
          (act): SiLU(inplace=True)
        )
        (4): C3(
          (cv1): Conv(
            (conv): Conv2d(128, 64, kernel_size=(1, 1), stride=(1, 1))
            (act): SiLU(inplace=True)
          )
          (cv2): Conv(
            (conv): Conv2d(128, 64, kernel_size=(1, 1), stride=(1, 1))
            (act): SiLU(inplace=True)
          )
          (cv3): Conv(
            (conv): Conv2d(128, 128, kernel_size=(1, 1), stride=(1, 1))
            (act): SiLU(inplace=True)
          )
          (m): Sequential(
            (0): Bottleneck(
              (cv1): Conv(
                (conv): Conv2d(64, 64, kernel_size=(1, 1), stride=(1, 1))
                (act): SiLU(inplace=True)
              )
              (cv2): Conv(
                (conv): Conv2d(64, 64, kernel_size=(3, 3), stride=(1, 1), padding=(1, 1))
                (act): SiLU(inplace=True)
              )
            )
            (1): Bottleneck(
              (cv1): Conv(
                (conv): Conv2d(64, 64, kernel_size=(1, 1), stride=(1, 1))
                (act): SiLU(inplace=True)
              )
              (cv2): Conv(
                (conv): Conv2d(64, 64, kernel_size=(3, 3), stride=(1, 1), padding=(1, 1))
                (act): SiLU(inplace=True)
              )
            )
          )
        )
        (5): Conv(
          (conv): Conv2d(128, 256, kernel_size=(3, 3), stride=(2, 2), padding=(1, 1))
          (act): SiLU(inplace=True)
        )
        (6): C3(
          (cv1): Conv(
            (conv): Conv2d(256, 128, kernel_size=(1, 1), stride=(1, 1))
            (act): SiLU(inplace=True)
          )
          (cv2): Conv(
            (conv): Conv2d(256, 128, kernel_size=(1, 1), stride=(1, 1))
            (act): SiLU(inplace=True)
          )
          (cv3): Conv(
            (conv): Conv2d(256, 256, kernel_size=(1, 1), stride=(1, 1))
            (act): SiLU(inplace=True)
          )
          (m): Sequential(
            (0): Bottleneck(
              (cv1): Conv(
                (conv): Conv2d(128, 128, kernel_size=(1, 1), stride=(1, 1))
                (act): SiLU(inplace=True)
              )
              (cv2): Conv(
                (conv): Conv2d(128, 128, kernel_size=(3, 3), stride=(1, 1), padding=(1, 1))
                (act): SiLU(inplace=True)
              )
            )
            (1): Bottleneck(
              (cv1): Conv(
                (conv): Conv2d(128, 128, kernel_size=(1, 1), stride=(1, 1))
                (act): SiLU(inplace=True)
              )
              (cv2): Conv(
                (conv): Conv2d(128, 128, kernel_size=(3, 3), stride=(1, 1), padding=(1, 1))
                (act): SiLU(inplace=True)
              )
            )
            (2): Bottleneck(
              (cv1): Conv(
                (conv): Conv2d(128, 128, kernel_size=(1, 1), stride=(1, 1))
                (act): SiLU(inplace=True)
              )
              (cv2): Conv(
                (conv): Conv2d(128, 128, kernel_size=(3, 3), stride=(1, 1), padding=(1, 1))
                (act): SiLU(inplace=True)
              )
            )
          )
        )
        (7): Conv(
          (conv): Conv2d(256, 384, kernel_size=(3, 3), stride=(2, 2), padding=(1, 1))
          (act): SiLU(inplace=True)
        )
        (8): C3(
          (cv1): Conv(
            (conv): Conv2d(384, 192, kernel_size=(1, 1), stride=(1, 1))
            (act): SiLU(inplace=True)
          )
          (cv2): Conv(
            (conv): Conv2d(384, 192, kernel_size=(1, 1), stride=(1, 1))
            (act): SiLU(inplace=True)
          )
          (cv3): Conv(
            (conv): Conv2d(384, 384, kernel_size=(1, 1), stride=(1, 1))
            (act): SiLU(inplace=True)
          )
          (m): Sequential(
            (0): Bottleneck(
              (cv1): Conv(
                (conv): Conv2d(192, 192, kernel_size=(1, 1), stride=(1, 1))
                (act): SiLU(inplace=True)
              )
              (cv2): Conv(
                (conv): Conv2d(192, 192, kernel_size=(3, 3), stride=(1, 1), padding=(1, 1))
                (act): SiLU(inplace=True)
              )
            )
          )
        )
        (9): Conv(
          (conv): Conv2d(384, 512, kernel_size=(3, 3), stride=(2, 2), padding=(1, 1))
          (act): SiLU(inplace=True)
        )
        (10): C3(
          (cv1): Conv(
            (conv): Conv2d(512, 256, kernel_size=(1, 1), stride=(1, 1))
            (act): SiLU(inplace=True)
          )
          (cv2): Conv(
            (conv): Conv2d(512, 256, kernel_size=(1, 1), stride=(1, 1))
            (act): SiLU(inplace=True)
          )
          (cv3): Conv(
            (conv): Conv2d(512, 512, kernel_size=(1, 1), stride=(1, 1))
            (act): SiLU(inplace=True)
          )
          (m): Sequential(
            (0): Bottleneck(
              (cv1): Conv(
                (conv): Conv2d(256, 256, kernel_size=(1, 1), stride=(1, 1))
                (act): SiLU(inplace=True)
              )
              (cv2): Conv(
                (conv): Conv2d(256, 256, kernel_size=(3, 3), stride=(1, 1), padding=(1, 1))
                (act): SiLU(inplace=True)
              )
            )
          )
        )
        (11): SPPF(
          (cv1): Conv(
            (conv): Conv2d(512, 256, kernel_size=(1, 1), stride=(1, 1))
            (act): SiLU(inplace=True)
          )
          (cv2): Conv(
            (conv): Conv2d(1024, 512, kernel_size=(1, 1), stride=(1, 1))
            (act): SiLU(inplace=True)
          )
          (m): MaxPool2d(kernel_size=5, stride=1, padding=2, dilation=1, ceil_mode=False)
        )
        (12): Conv(
          (conv): Conv2d(512, 384, kernel_size=(1, 1), stride=(1, 1))
          (act): SiLU(inplace=True)
        )
        (13): Upsample(scale_factor=2.0, mode='nearest')
        (14): Concat()
        (15): C3(
          (cv1): Conv(
            (conv): Conv2d(768, 192, kernel_size=(1, 1), stride=(1, 1))
            (act): SiLU(inplace=True)
          )
          (cv2): Conv(
            (conv): Conv2d(768, 192, kernel_size=(1, 1), stride=(1, 1))
            (act): SiLU(inplace=True)
          )
          (cv3): Conv(
            (conv): Conv2d(384, 384, kernel_size=(1, 1), stride=(1, 1))
            (act): SiLU(inplace=True)
          )
          (m): Sequential(
            (0): Bottleneck(
              (cv1): Conv(
                (conv): Conv2d(192, 192, kernel_size=(1, 1), stride=(1, 1))
                (act): SiLU(inplace=True)
              )
              (cv2): Conv(
                (conv): Conv2d(192, 192, kernel_size=(3, 3), stride=(1, 1), padding=(1, 1))
                (act): SiLU(inplace=True)
              )
            )
          )
        )
        (16): Conv(
          (conv): Conv2d(384, 256, kernel_size=(1, 1), stride=(1, 1))
          (act): SiLU(inplace=True)
        )
        (17): Upsample(scale_factor=2.0, mode='nearest')
        (18): Concat()
        (19): C3(
          (cv1): Conv(
            (conv): Conv2d(512, 128, kernel_size=(1, 1), stride=(1, 1))
            (act): SiLU(inplace=True)
          )
          (cv2): Conv(
            (conv): Conv2d(512, 128, kernel_size=(1, 1), stride=(1, 1))
            (act): SiLU(inplace=True)
          )
          (cv3): Conv(
            (conv): Conv2d(256, 256, kernel_size=(1, 1), stride=(1, 1))
            (act): SiLU(inplace=True)
          )
          (m): Sequential(
            (0): Bottleneck(
              (cv1): Conv(
                (conv): Conv2d(128, 128, kernel_size=(1, 1), stride=(1, 1))
                (act): SiLU(inplace=True)
              )
              (cv2): Conv(
                (conv): Conv2d(128, 128, kernel_size=(3, 3), stride=(1, 1), padding=(1, 1))
                (act): SiLU(inplace=True)
              )
            )
          )
        )
        (20): Conv(
          (conv): Conv2d(256, 128, kernel_size=(1, 1), stride=(1, 1))
          (act): SiLU(inplace=True)
        )
        (21): Upsample(scale_factor=2.0, mode='nearest')
        (22): Concat()
        (23): C3(
          (cv1): Conv(
            (conv): Conv2d(256, 64, kernel_size=(1, 1), stride=(1, 1))
            (act): SiLU(inplace=True)
          )
          (cv2): Conv(
            (conv): Conv2d(256, 64, kernel_size=(1, 1), stride=(1, 1))
            (act): SiLU(inplace=True)
          )
          (cv3): Conv(
            (conv): Conv2d(128, 128, kernel_size=(1, 1), stride=(1, 1))
            (act): SiLU(inplace=True)
          )
          (m): Sequential(
            (0): Bottleneck(
              (cv1): Conv(
                (conv): Conv2d(64, 64, kernel_size=(1, 1), stride=(1, 1))
                (act): SiLU(inplace=True)
              )
              (cv2): Conv(
                (conv): Conv2d(64, 64, kernel_size=(3, 3), stride=(1, 1), padding=(1, 1))
                (act): SiLU(inplace=True)
              )
            )
          )
        )
        (24): Conv(
          (conv): Conv2d(128, 128, kernel_size=(3, 3), stride=(2, 2), padding=(1, 1))
          (act): SiLU(inplace=True)
        )
        (25): Concat()
        (26): C3(
          (cv1): Conv(
            (conv): Conv2d(256, 128, kernel_size=(1, 1), stride=(1, 1))
            (act): SiLU(inplace=True)
          )
          (cv2): Conv(
            (conv): Conv2d(256, 128, kernel_size=(1, 1), stride=(1, 1))
            (act): SiLU(inplace=True)
          )
          (cv3): Conv(
            (conv): Conv2d(256, 256, kernel_size=(1, 1), stride=(1, 1))
            (act): SiLU(inplace=True)
          )
          (m): Sequential(
            (0): Bottleneck(
              (cv1): Conv(
                (conv): Conv2d(128, 128, kernel_size=(1, 1), stride=(1, 1))
                (act): SiLU(inplace=True)
              )
              (cv2): Conv(
                (conv): Conv2d(128, 128, kernel_size=(3, 3), stride=(1, 1), padding=(1, 1))
                (act): SiLU(inplace=True)
              )
            )
          )
        )
        (27): Conv(
          (conv): Conv2d(256, 256, kernel_size=(3, 3), stride=(2, 2), padding=(1, 1))
          (act): SiLU(inplace=True)
        )
        (28): Concat()
        (29): C3(
          (cv1): Conv(
            (conv): Conv2d(512, 192, kernel_size=(1, 1), stride=(1, 1))
            (act): SiLU(inplace=True)
          )
          (cv2): Conv(
            (conv): Conv2d(512, 192, kernel_size=(1, 1), stride=(1, 1))
            (act): SiLU(inplace=True)
          )
          (cv3): Conv(
            (conv): Conv2d(384, 384, kernel_size=(1, 1), stride=(1, 1))
            (act): SiLU(inplace=True)
          )
          (m): Sequential(
            (0): Bottleneck(
              (cv1): Conv(
                (conv): Conv2d(192, 192, kernel_size=(1, 1), stride=(1, 1))
                (act): SiLU(inplace=True)
              )
              (cv2): Conv(
                (conv): Conv2d(192, 192, kernel_size=(3, 3), stride=(1, 1), padding=(1, 1))
                (act): SiLU(inplace=True)
              )
            )
          )
        )
        (30): Conv(
          (conv): Conv2d(384, 384, kernel_size=(3, 3), stride=(2, 2), padding=(1, 1))
          (act): SiLU(inplace=True)
        )
        (31): Concat()
        (32): C3(
          (cv1): Conv(
            (conv): Conv2d(768, 256, kernel_size=(1, 1), stride=(1, 1))
            (act): SiLU(inplace=True)
          )
          (cv2): Conv(
            (conv): Conv2d(768, 256, kernel_size=(1, 1), stride=(1, 1))
            (act): SiLU(inplace=True)
          )
          (cv3): Conv(
            (conv): Conv2d(512, 512, kernel_size=(1, 1), stride=(1, 1))
            (act): SiLU(inplace=True)
          )
          (m): Sequential(
            (0): Bottleneck(
              (cv1): Conv(
                (conv): Conv2d(256, 256, kernel_size=(1, 1), stride=(1, 1))
                (act): SiLU(inplace=True)
              )
              (cv2): Conv(
                (conv): Conv2d(256, 256, kernel_size=(3, 3), stride=(1, 1), padding=(1, 1))
                (act): SiLU(inplace=True)
              )
            )
          )
        )
        (33): Detect(
          (m): ModuleList(
            (0): Conv2d(128, 33, kernel_size=(1, 1), stride=(1, 1))
            (1): Conv2d(256, 33, kernel_size=(1, 1), stride=(1, 1))
            (2): Conv2d(384, 33, kernel_size=(1, 1), stride=(1, 1))
            (3): Conv2d(512, 33, kernel_size=(1, 1), stride=(1, 1))
          )
        )
      )
    )
  )
)
Current location!: c:\Users\aviel\Desktop\Projects\Websites\Fripen-AI\Fripen-AI-2.0\app
Image path: c:\Users\aviel\Desktop\Projects\Websites\Fripen-AI\Fripen-AI-2.0\app\static\uploads\blueberrytest.jpg
Ran through results
Image path: None
Image path entered into if loop
old image removed
Results saved into: c:\Users\aviel\Desktop\Projects\Websites\Fripen-AI\Fripen-AI-2.0\app\static\uploads
AT the RETURN STATEMENT
Current location!: c:\Users\aviel\Desktop\Projects\Websites\Fripen-AI\Fripen-AI-2.0\app
Image path: c:\Users\aviel\Desktop\Projects\Websites\Fripen-AI\Fripen-AI-2.0\app\static\uploads\blueberrytest.jpg
Error processing image: [Errno 2] No such file or directory: 'c:\\Users\\aviel\\Desktop\\Projects\\Websites\\Fripen-AI\\Fripen-AI-2.0\\app\\static\\uploads\\blueberrytest.jpg'
Successful loading of model!
model: AutoShape(
  (model): DetectMultiBackend(
    (model): DetectionModel(
      (model): Sequential(
        (0): Conv(
          (conv): Conv2d(3, 32, kernel_size=(6, 6), stride=(2, 2), padding=(2, 2))
          (act): SiLU(inplace=True)
        )
        (1): Conv(
          (conv): Conv2d(32, 64, kernel_size=(3, 3), stride=(2, 2), padding=(1, 1))
          (act): SiLU(inplace=True)
        )
        (2): C3(
          (cv1): Conv(
            (conv): Conv2d(64, 32, kernel_size=(1, 1), stride=(1, 1))
            (act): SiLU(inplace=True)
          )
          (cv2): Conv(
            (conv): Conv2d(64, 32, kernel_size=(1, 1), stride=(1, 1))
            (act): SiLU(inplace=True)
          )
          (cv3): Conv(
            (conv): Conv2d(64, 64, kernel_size=(1, 1), stride=(1, 1))
            (act): SiLU(inplace=True)
          )
          (m): Sequential(
            (0): Bottleneck(
              (cv1): Conv(
                (conv): Conv2d(32, 32, kernel_size=(1, 1), stride=(1, 1))
                (act): SiLU(inplace=True)
              )
              (cv2): Conv(
                (conv): Conv2d(32, 32, kernel_size=(3, 3), stride=(1, 1), padding=(1, 1))
                (act): SiLU(inplace=True)
              )
            )
          )
        )
        (3): Conv(
          (conv): Conv2d(64, 128, kernel_size=(3, 3), stride=(2, 2), padding=(1, 1))
          (act): SiLU(inplace=True)
        )
        (4): C3(
          (cv1): Conv(
            (conv): Conv2d(128, 64, kernel_size=(1, 1), stride=(1, 1))
            (act): SiLU(inplace=True)
          )
          (cv2): Conv(
            (conv): Conv2d(128, 64, kernel_size=(1, 1), stride=(1, 1))
            (act): SiLU(inplace=True)
          )
          (cv3): Conv(
            (conv): Conv2d(128, 128, kernel_size=(1, 1), stride=(1, 1))
            (act): SiLU(inplace=True)
          )
          (m): Sequential(
            (0): Bottleneck(
              (cv1): Conv(
                (conv): Conv2d(64, 64, kernel_size=(1, 1), stride=(1, 1))
                (act): SiLU(inplace=True)
              )
              (cv2): Conv(
                (conv): Conv2d(64, 64, kernel_size=(3, 3), stride=(1, 1), padding=(1, 1))
                (act): SiLU(inplace=True)
              )
            )
            (1): Bottleneck(
              (cv1): Conv(
                (conv): Conv2d(64, 64, kernel_size=(1, 1), stride=(1, 1))
                (act): SiLU(inplace=True)
              )
              (cv2): Conv(
                (conv): Conv2d(64, 64, kernel_size=(3, 3), stride=(1, 1), padding=(1, 1))
                (act): SiLU(inplace=True)
              )
            )
          )
        )
        (5): Conv(
          (conv): Conv2d(128, 256, kernel_size=(3, 3), stride=(2, 2), padding=(1, 1))
          (act): SiLU(inplace=True)
        )
        (6): C3(
          (cv1): Conv(
            (conv): Conv2d(256, 128, kernel_size=(1, 1), stride=(1, 1))
            (act): SiLU(inplace=True)
          )
          (cv2): Conv(
            (conv): Conv2d(256, 128, kernel_size=(1, 1), stride=(1, 1))
            (act): SiLU(inplace=True)
          )
          (cv3): Conv(
            (conv): Conv2d(256, 256, kernel_size=(1, 1), stride=(1, 1))
            (act): SiLU(inplace=True)
          )
          (m): Sequential(
            (0): Bottleneck(
              (cv1): Conv(
                (conv): Conv2d(128, 128, kernel_size=(1, 1), stride=(1, 1))
                (act): SiLU(inplace=True)
              )
              (cv2): Conv(
                (conv): Conv2d(128, 128, kernel_size=(3, 3), stride=(1, 1), padding=(1, 1))
                (act): SiLU(inplace=True)
              )
            )
            (1): Bottleneck(
              (cv1): Conv(
                (conv): Conv2d(128, 128, kernel_size=(1, 1), stride=(1, 1))
                (act): SiLU(inplace=True)
              )
              (cv2): Conv(
                (conv): Conv2d(128, 128, kernel_size=(3, 3), stride=(1, 1), padding=(1, 1))
                (act): SiLU(inplace=True)
              )
            )
            (2): Bottleneck(
              (cv1): Conv(
                (conv): Conv2d(128, 128, kernel_size=(1, 1), stride=(1, 1))
                (act): SiLU(inplace=True)
              )
              (cv2): Conv(
                (conv): Conv2d(128, 128, kernel_size=(3, 3), stride=(1, 1), padding=(1, 1))
                (act): SiLU(inplace=True)
              )
            )
          )
        )
        (7): Conv(
          (conv): Conv2d(256, 384, kernel_size=(3, 3), stride=(2, 2), padding=(1, 1))
          (act): SiLU(inplace=True)
        )
        (8): C3(
          (cv1): Conv(
            (conv): Conv2d(384, 192, kernel_size=(1, 1), stride=(1, 1))
            (act): SiLU(inplace=True)
          )
          (cv2): Conv(
            (conv): Conv2d(384, 192, kernel_size=(1, 1), stride=(1, 1))
            (act): SiLU(inplace=True)
          )
          (cv3): Conv(
            (conv): Conv2d(384, 384, kernel_size=(1, 1), stride=(1, 1))
            (act): SiLU(inplace=True)
          )
          (m): Sequential(
            (0): Bottleneck(
              (cv1): Conv(
                (conv): Conv2d(192, 192, kernel_size=(1, 1), stride=(1, 1))
                (act): SiLU(inplace=True)
              )
              (cv2): Conv(
                (conv): Conv2d(192, 192, kernel_size=(3, 3), stride=(1, 1), padding=(1, 1))
                (act): SiLU(inplace=True)
              )
            )
          )
        )
        (9): Conv(
          (conv): Conv2d(384, 512, kernel_size=(3, 3), stride=(2, 2), padding=(1, 1))
          (act): SiLU(inplace=True)
        )
        (10): C3(
          (cv1): Conv(
            (conv): Conv2d(512, 256, kernel_size=(1, 1), stride=(1, 1))
            (act): SiLU(inplace=True)
          )
          (cv2): Conv(
            (conv): Conv2d(512, 256, kernel_size=(1, 1), stride=(1, 1))
            (act): SiLU(inplace=True)
          )
          (cv3): Conv(
            (conv): Conv2d(512, 512, kernel_size=(1, 1), stride=(1, 1))
            (act): SiLU(inplace=True)
          )
          (m): Sequential(
            (0): Bottleneck(
              (cv1): Conv(
                (conv): Conv2d(256, 256, kernel_size=(1, 1), stride=(1, 1))
                (act): SiLU(inplace=True)
              )
              (cv2): Conv(
                (conv): Conv2d(256, 256, kernel_size=(3, 3), stride=(1, 1), padding=(1, 1))
                (act): SiLU(inplace=True)
              )
            )
          )
        )
        (11): SPPF(
          (cv1): Conv(
            (conv): Conv2d(512, 256, kernel_size=(1, 1), stride=(1, 1))
            (act): SiLU(inplace=True)
          )
          (cv2): Conv(
            (conv): Conv2d(1024, 512, kernel_size=(1, 1), stride=(1, 1))
            (act): SiLU(inplace=True)
          )
          (m): MaxPool2d(kernel_size=5, stride=1, padding=2, dilation=1, ceil_mode=False)
        )
        (12): Conv(
          (conv): Conv2d(512, 384, kernel_size=(1, 1), stride=(1, 1))
          (act): SiLU(inplace=True)
        )
        (13): Upsample(scale_factor=2.0, mode='nearest')
        (14): Concat()
        (15): C3(
          (cv1): Conv(
            (conv): Conv2d(768, 192, kernel_size=(1, 1), stride=(1, 1))
            (act): SiLU(inplace=True)
          )
          (cv2): Conv(
            (conv): Conv2d(768, 192, kernel_size=(1, 1), stride=(1, 1))
            (act): SiLU(inplace=True)
          )
          (cv3): Conv(
            (conv): Conv2d(384, 384, kernel_size=(1, 1), stride=(1, 1))
            (act): SiLU(inplace=True)
          )
          (m): Sequential(
            (0): Bottleneck(
              (cv1): Conv(
                (conv): Conv2d(192, 192, kernel_size=(1, 1), stride=(1, 1))
                (act): SiLU(inplace=True)
              )
              (cv2): Conv(
                (conv): Conv2d(192, 192, kernel_size=(3, 3), stride=(1, 1), padding=(1, 1))
                (act): SiLU(inplace=True)
              )
            )
          )
        )
        (16): Conv(
          (conv): Conv2d(384, 256, kernel_size=(1, 1), stride=(1, 1))
          (act): SiLU(inplace=True)
        )
        (17): Upsample(scale_factor=2.0, mode='nearest')
        (18): Concat()
        (19): C3(
          (cv1): Conv(
            (conv): Conv2d(512, 128, kernel_size=(1, 1), stride=(1, 1))
            (act): SiLU(inplace=True)
          )
          (cv2): Conv(
            (conv): Conv2d(512, 128, kernel_size=(1, 1), stride=(1, 1))
            (act): SiLU(inplace=True)
          )
          (cv3): Conv(
            (conv): Conv2d(256, 256, kernel_size=(1, 1), stride=(1, 1))
            (act): SiLU(inplace=True)
          )
          (m): Sequential(
            (0): Bottleneck(
              (cv1): Conv(
                (conv): Conv2d(128, 128, kernel_size=(1, 1), stride=(1, 1))
                (act): SiLU(inplace=True)
              )
              (cv2): Conv(
                (conv): Conv2d(128, 128, kernel_size=(3, 3), stride=(1, 1), padding=(1, 1))
                (act): SiLU(inplace=True)
              )
            )
          )
        )
        (20): Conv(
          (conv): Conv2d(256, 128, kernel_size=(1, 1), stride=(1, 1))
          (act): SiLU(inplace=True)
        )
        (21): Upsample(scale_factor=2.0, mode='nearest')
        (22): Concat()
        (23): C3(
          (cv1): Conv(
            (conv): Conv2d(256, 64, kernel_size=(1, 1), stride=(1, 1))
            (act): SiLU(inplace=True)
          )
          (cv2): Conv(
            (conv): Conv2d(256, 64, kernel_size=(1, 1), stride=(1, 1))
            (act): SiLU(inplace=True)
          )
          (cv3): Conv(
            (conv): Conv2d(128, 128, kernel_size=(1, 1), stride=(1, 1))
            (act): SiLU(inplace=True)
          )
          (m): Sequential(
            (0): Bottleneck(
              (cv1): Conv(
                (conv): Conv2d(64, 64, kernel_size=(1, 1), stride=(1, 1))
                (act): SiLU(inplace=True)
              )
              (cv2): Conv(
                (conv): Conv2d(64, 64, kernel_size=(3, 3), stride=(1, 1), padding=(1, 1))
                (act): SiLU(inplace=True)
              )
            )
          )
        )
        (24): Conv(
          (conv): Conv2d(128, 128, kernel_size=(3, 3), stride=(2, 2), padding=(1, 1))
          (act): SiLU(inplace=True)
        )
        (25): Concat()
        (26): C3(
          (cv1): Conv(
            (conv): Conv2d(256, 128, kernel_size=(1, 1), stride=(1, 1))
            (act): SiLU(inplace=True)
          )
          (cv2): Conv(
            (conv): Conv2d(256, 128, kernel_size=(1, 1), stride=(1, 1))
            (act): SiLU(inplace=True)
          )
          (cv3): Conv(
            (conv): Conv2d(256, 256, kernel_size=(1, 1), stride=(1, 1))
            (act): SiLU(inplace=True)
          )
          (m): Sequential(
            (0): Bottleneck(
              (cv1): Conv(
                (conv): Conv2d(128, 128, kernel_size=(1, 1), stride=(1, 1))
                (act): SiLU(inplace=True)
              )
              (cv2): Conv(
                (conv): Conv2d(128, 128, kernel_size=(3, 3), stride=(1, 1), padding=(1, 1))
                (act): SiLU(inplace=True)
              )
            )
          )
        )
        (27): Conv(
          (conv): Conv2d(256, 256, kernel_size=(3, 3), stride=(2, 2), padding=(1, 1))
          (act): SiLU(inplace=True)
        )
        (28): Concat()
        (29): C3(
          (cv1): Conv(
            (conv): Conv2d(512, 192, kernel_size=(1, 1), stride=(1, 1))
            (act): SiLU(inplace=True)
          )
          (cv2): Conv(
            (conv): Conv2d(512, 192, kernel_size=(1, 1), stride=(1, 1))
            (act): SiLU(inplace=True)
          )
          (cv3): Conv(
            (conv): Conv2d(384, 384, kernel_size=(1, 1), stride=(1, 1))
            (act): SiLU(inplace=True)
          )
          (m): Sequential(
            (0): Bottleneck(
              (cv1): Conv(
                (conv): Conv2d(192, 192, kernel_size=(1, 1), stride=(1, 1))
                (act): SiLU(inplace=True)
              )
              (cv2): Conv(
                (conv): Conv2d(192, 192, kernel_size=(3, 3), stride=(1, 1), padding=(1, 1))
                (act): SiLU(inplace=True)
              )
            )
          )
        )
        (30): Conv(
          (conv): Conv2d(384, 384, kernel_size=(3, 3), stride=(2, 2), padding=(1, 1))
          (act): SiLU(inplace=True)
        )
        (31): Concat()
        (32): C3(
          (cv1): Conv(
            (conv): Conv2d(768, 256, kernel_size=(1, 1), stride=(1, 1))
            (act): SiLU(inplace=True)
          )
          (cv2): Conv(
            (conv): Conv2d(768, 256, kernel_size=(1, 1), stride=(1, 1))
            (act): SiLU(inplace=True)
          )
          (cv3): Conv(
            (conv): Conv2d(512, 512, kernel_size=(1, 1), stride=(1, 1))
            (act): SiLU(inplace=True)
          )
          (m): Sequential(
            (0): Bottleneck(
              (cv1): Conv(
                (conv): Conv2d(256, 256, kernel_size=(1, 1), stride=(1, 1))
                (act): SiLU(inplace=True)
              )
              (cv2): Conv(
                (conv): Conv2d(256, 256, kernel_size=(3, 3), stride=(1, 1), padding=(1, 1))
                (act): SiLU(inplace=True)
              )
            )
          )
        )
        (33): Detect(
          (m): ModuleList(
            (0): Conv2d(128, 33, kernel_size=(1, 1), stride=(1, 1))
            (1): Conv2d(256, 33, kernel_size=(1, 1), stride=(1, 1))
            (2): Conv2d(384, 33, kernel_size=(1, 1), stride=(1, 1))
            (3): Conv2d(512, 33, kernel_size=(1, 1), stride=(1, 1))
          )
        )
      )
    )
  )
)
Current location!: c:\Users\aviel\Desktop\Projects\Websites\Fripen-AI\Fripen-AI-2.0\app
Image path: c:\Users\aviel\Desktop\Projects\Websites\Fripen-AI\Fripen-AI-2.0\app\static\uploads\blueberrytest.jpg
Ran through results
Image path: None
Image path entered into if loop
old image removed
Results saved into: c:\Users\aviel\Desktop\Projects\Websites\Fripen-AI\Fripen-AI-2.0\app\static\uploads\blueberrytest.jpg
AT the RETURN STATEMENT
Error saving file: [WinError 5] Access is denied: 'c:\\Users\\aviel\\Desktop\\Projects\\Websites\\Fripen-AI\\Fripen-AI-2.0\\app\\static\\uploads\\blueberrytest.jpg'
Successful loading of model!
model: AutoShape(
  (model): DetectMultiBackend(
    (model): DetectionModel(
      (model): Sequential(
        (0): Conv(
          (conv): Conv2d(3, 32, kernel_size=(6, 6), stride=(2, 2), padding=(2, 2))
          (act): SiLU(inplace=True)
        )
        (1): Conv(
          (conv): Conv2d(32, 64, kernel_size=(3, 3), stride=(2, 2), padding=(1, 1))
          (act): SiLU(inplace=True)
        )
        (2): C3(
          (cv1): Conv(
            (conv): Conv2d(64, 32, kernel_size=(1, 1), stride=(1, 1))
            (act): SiLU(inplace=True)
          )
          (cv2): Conv(
            (conv): Conv2d(64, 32, kernel_size=(1, 1), stride=(1, 1))
            (act): SiLU(inplace=True)
          )
          (cv3): Conv(
            (conv): Conv2d(64, 64, kernel_size=(1, 1), stride=(1, 1))
            (act): SiLU(inplace=True)
          )
          (m): Sequential(
            (0): Bottleneck(
              (cv1): Conv(
                (conv): Conv2d(32, 32, kernel_size=(1, 1), stride=(1, 1))
                (act): SiLU(inplace=True)
              )
              (cv2): Conv(
                (conv): Conv2d(32, 32, kernel_size=(3, 3), stride=(1, 1), padding=(1, 1))
                (act): SiLU(inplace=True)
              )
            )
          )
        )
        (3): Conv(
          (conv): Conv2d(64, 128, kernel_size=(3, 3), stride=(2, 2), padding=(1, 1))
          (act): SiLU(inplace=True)
        )
        (4): C3(
          (cv1): Conv(
            (conv): Conv2d(128, 64, kernel_size=(1, 1), stride=(1, 1))
            (act): SiLU(inplace=True)
          )
          (cv2): Conv(
            (conv): Conv2d(128, 64, kernel_size=(1, 1), stride=(1, 1))
            (act): SiLU(inplace=True)
          )
          (cv3): Conv(
            (conv): Conv2d(128, 128, kernel_size=(1, 1), stride=(1, 1))
            (act): SiLU(inplace=True)
          )
          (m): Sequential(
            (0): Bottleneck(
              (cv1): Conv(
                (conv): Conv2d(64, 64, kernel_size=(1, 1), stride=(1, 1))
                (act): SiLU(inplace=True)
              )
              (cv2): Conv(
                (conv): Conv2d(64, 64, kernel_size=(3, 3), stride=(1, 1), padding=(1, 1))
                (act): SiLU(inplace=True)
              )
            )
            (1): Bottleneck(
              (cv1): Conv(
                (conv): Conv2d(64, 64, kernel_size=(1, 1), stride=(1, 1))
                (act): SiLU(inplace=True)
              )
              (cv2): Conv(
                (conv): Conv2d(64, 64, kernel_size=(3, 3), stride=(1, 1), padding=(1, 1))
                (act): SiLU(inplace=True)
              )
            )
          )
        )
        (5): Conv(
          (conv): Conv2d(128, 256, kernel_size=(3, 3), stride=(2, 2), padding=(1, 1))
          (act): SiLU(inplace=True)
        )
        (6): C3(
          (cv1): Conv(
            (conv): Conv2d(256, 128, kernel_size=(1, 1), stride=(1, 1))
            (act): SiLU(inplace=True)
          )
          (cv2): Conv(
            (conv): Conv2d(256, 128, kernel_size=(1, 1), stride=(1, 1))
            (act): SiLU(inplace=True)
          )
          (cv3): Conv(
            (conv): Conv2d(256, 256, kernel_size=(1, 1), stride=(1, 1))
            (act): SiLU(inplace=True)
          )
          (m): Sequential(
            (0): Bottleneck(
              (cv1): Conv(
                (conv): Conv2d(128, 128, kernel_size=(1, 1), stride=(1, 1))
                (act): SiLU(inplace=True)
              )
              (cv2): Conv(
                (conv): Conv2d(128, 128, kernel_size=(3, 3), stride=(1, 1), padding=(1, 1))
                (act): SiLU(inplace=True)
              )
            )
            (1): Bottleneck(
              (cv1): Conv(
                (conv): Conv2d(128, 128, kernel_size=(1, 1), stride=(1, 1))
                (act): SiLU(inplace=True)
              )
              (cv2): Conv(
                (conv): Conv2d(128, 128, kernel_size=(3, 3), stride=(1, 1), padding=(1, 1))
                (act): SiLU(inplace=True)
              )
            )
            (2): Bottleneck(
              (cv1): Conv(
                (conv): Conv2d(128, 128, kernel_size=(1, 1), stride=(1, 1))
                (act): SiLU(inplace=True)
              )
              (cv2): Conv(
                (conv): Conv2d(128, 128, kernel_size=(3, 3), stride=(1, 1), padding=(1, 1))
                (act): SiLU(inplace=True)
              )
            )
          )
        )
        (7): Conv(
          (conv): Conv2d(256, 384, kernel_size=(3, 3), stride=(2, 2), padding=(1, 1))
          (act): SiLU(inplace=True)
        )
        (8): C3(
          (cv1): Conv(
            (conv): Conv2d(384, 192, kernel_size=(1, 1), stride=(1, 1))
            (act): SiLU(inplace=True)
          )
          (cv2): Conv(
            (conv): Conv2d(384, 192, kernel_size=(1, 1), stride=(1, 1))
            (act): SiLU(inplace=True)
          )
          (cv3): Conv(
            (conv): Conv2d(384, 384, kernel_size=(1, 1), stride=(1, 1))
            (act): SiLU(inplace=True)
          )
          (m): Sequential(
            (0): Bottleneck(
              (cv1): Conv(
                (conv): Conv2d(192, 192, kernel_size=(1, 1), stride=(1, 1))
                (act): SiLU(inplace=True)
              )
              (cv2): Conv(
                (conv): Conv2d(192, 192, kernel_size=(3, 3), stride=(1, 1), padding=(1, 1))
                (act): SiLU(inplace=True)
              )
            )
          )
        )
        (9): Conv(
          (conv): Conv2d(384, 512, kernel_size=(3, 3), stride=(2, 2), padding=(1, 1))
          (act): SiLU(inplace=True)
        )
        (10): C3(
          (cv1): Conv(
            (conv): Conv2d(512, 256, kernel_size=(1, 1), stride=(1, 1))
            (act): SiLU(inplace=True)
          )
          (cv2): Conv(
            (conv): Conv2d(512, 256, kernel_size=(1, 1), stride=(1, 1))
            (act): SiLU(inplace=True)
          )
          (cv3): Conv(
            (conv): Conv2d(512, 512, kernel_size=(1, 1), stride=(1, 1))
            (act): SiLU(inplace=True)
          )
          (m): Sequential(
            (0): Bottleneck(
              (cv1): Conv(
                (conv): Conv2d(256, 256, kernel_size=(1, 1), stride=(1, 1))
                (act): SiLU(inplace=True)
              )
              (cv2): Conv(
                (conv): Conv2d(256, 256, kernel_size=(3, 3), stride=(1, 1), padding=(1, 1))
                (act): SiLU(inplace=True)
              )
            )
          )
        )
        (11): SPPF(
          (cv1): Conv(
            (conv): Conv2d(512, 256, kernel_size=(1, 1), stride=(1, 1))
            (act): SiLU(inplace=True)
          )
          (cv2): Conv(
            (conv): Conv2d(1024, 512, kernel_size=(1, 1), stride=(1, 1))
            (act): SiLU(inplace=True)
          )
          (m): MaxPool2d(kernel_size=5, stride=1, padding=2, dilation=1, ceil_mode=False)
        )
        (12): Conv(
          (conv): Conv2d(512, 384, kernel_size=(1, 1), stride=(1, 1))
          (act): SiLU(inplace=True)
        )
        (13): Upsample(scale_factor=2.0, mode='nearest')
        (14): Concat()
        (15): C3(
          (cv1): Conv(
            (conv): Conv2d(768, 192, kernel_size=(1, 1), stride=(1, 1))
            (act): SiLU(inplace=True)
          )
          (cv2): Conv(
            (conv): Conv2d(768, 192, kernel_size=(1, 1), stride=(1, 1))
            (act): SiLU(inplace=True)
          )
          (cv3): Conv(
            (conv): Conv2d(384, 384, kernel_size=(1, 1), stride=(1, 1))
            (act): SiLU(inplace=True)
          )
          (m): Sequential(
            (0): Bottleneck(
              (cv1): Conv(
                (conv): Conv2d(192, 192, kernel_size=(1, 1), stride=(1, 1))
                (act): SiLU(inplace=True)
              )
              (cv2): Conv(
                (conv): Conv2d(192, 192, kernel_size=(3, 3), stride=(1, 1), padding=(1, 1))
                (act): SiLU(inplace=True)
              )
            )
          )
        )
        (16): Conv(
          (conv): Conv2d(384, 256, kernel_size=(1, 1), stride=(1, 1))
          (act): SiLU(inplace=True)
        )
        (17): Upsample(scale_factor=2.0, mode='nearest')
        (18): Concat()
        (19): C3(
          (cv1): Conv(
            (conv): Conv2d(512, 128, kernel_size=(1, 1), stride=(1, 1))
            (act): SiLU(inplace=True)
          )
          (cv2): Conv(
            (conv): Conv2d(512, 128, kernel_size=(1, 1), stride=(1, 1))
            (act): SiLU(inplace=True)
          )
          (cv3): Conv(
            (conv): Conv2d(256, 256, kernel_size=(1, 1), stride=(1, 1))
            (act): SiLU(inplace=True)
          )
          (m): Sequential(
            (0): Bottleneck(
              (cv1): Conv(
                (conv): Conv2d(128, 128, kernel_size=(1, 1), stride=(1, 1))
                (act): SiLU(inplace=True)
              )
              (cv2): Conv(
                (conv): Conv2d(128, 128, kernel_size=(3, 3), stride=(1, 1), padding=(1, 1))
                (act): SiLU(inplace=True)
              )
            )
          )
        )
        (20): Conv(
          (conv): Conv2d(256, 128, kernel_size=(1, 1), stride=(1, 1))
          (act): SiLU(inplace=True)
        )
        (21): Upsample(scale_factor=2.0, mode='nearest')
        (22): Concat()
        (23): C3(
          (cv1): Conv(
            (conv): Conv2d(256, 64, kernel_size=(1, 1), stride=(1, 1))
            (act): SiLU(inplace=True)
          )
          (cv2): Conv(
            (conv): Conv2d(256, 64, kernel_size=(1, 1), stride=(1, 1))
            (act): SiLU(inplace=True)
          )
          (cv3): Conv(
            (conv): Conv2d(128, 128, kernel_size=(1, 1), stride=(1, 1))
            (act): SiLU(inplace=True)
          )
          (m): Sequential(
            (0): Bottleneck(
              (cv1): Conv(
                (conv): Conv2d(64, 64, kernel_size=(1, 1), stride=(1, 1))
                (act): SiLU(inplace=True)
              )
              (cv2): Conv(
                (conv): Conv2d(64, 64, kernel_size=(3, 3), stride=(1, 1), padding=(1, 1))
                (act): SiLU(inplace=True)
              )
            )
          )
        )
        (24): Conv(
          (conv): Conv2d(128, 128, kernel_size=(3, 3), stride=(2, 2), padding=(1, 1))
          (act): SiLU(inplace=True)
        )
        (25): Concat()
        (26): C3(
          (cv1): Conv(
            (conv): Conv2d(256, 128, kernel_size=(1, 1), stride=(1, 1))
            (act): SiLU(inplace=True)
          )
          (cv2): Conv(
            (conv): Conv2d(256, 128, kernel_size=(1, 1), stride=(1, 1))
            (act): SiLU(inplace=True)
          )
          (cv3): Conv(
            (conv): Conv2d(256, 256, kernel_size=(1, 1), stride=(1, 1))
            (act): SiLU(inplace=True)
          )
          (m): Sequential(
            (0): Bottleneck(
              (cv1): Conv(
                (conv): Conv2d(128, 128, kernel_size=(1, 1), stride=(1, 1))
                (act): SiLU(inplace=True)
              )
              (cv2): Conv(
                (conv): Conv2d(128, 128, kernel_size=(3, 3), stride=(1, 1), padding=(1, 1))
                (act): SiLU(inplace=True)
              )
            )
          )
        )
        (27): Conv(
          (conv): Conv2d(256, 256, kernel_size=(3, 3), stride=(2, 2), padding=(1, 1))
          (act): SiLU(inplace=True)
        )
        (28): Concat()
        (29): C3(
          (cv1): Conv(
            (conv): Conv2d(512, 192, kernel_size=(1, 1), stride=(1, 1))
            (act): SiLU(inplace=True)
          )
          (cv2): Conv(
            (conv): Conv2d(512, 192, kernel_size=(1, 1), stride=(1, 1))
            (act): SiLU(inplace=True)
          )
          (cv3): Conv(
            (conv): Conv2d(384, 384, kernel_size=(1, 1), stride=(1, 1))
            (act): SiLU(inplace=True)
          )
          (m): Sequential(
            (0): Bottleneck(
              (cv1): Conv(
                (conv): Conv2d(192, 192, kernel_size=(1, 1), stride=(1, 1))
                (act): SiLU(inplace=True)
              )
              (cv2): Conv(
                (conv): Conv2d(192, 192, kernel_size=(3, 3), stride=(1, 1), padding=(1, 1))
                (act): SiLU(inplace=True)
              )
            )
          )
        )
        (30): Conv(
          (conv): Conv2d(384, 384, kernel_size=(3, 3), stride=(2, 2), padding=(1, 1))
          (act): SiLU(inplace=True)
        )
        (31): Concat()
        (32): C3(
          (cv1): Conv(
            (conv): Conv2d(768, 256, kernel_size=(1, 1), stride=(1, 1))
            (act): SiLU(inplace=True)
          )
          (cv2): Conv(
            (conv): Conv2d(768, 256, kernel_size=(1, 1), stride=(1, 1))
            (act): SiLU(inplace=True)
          )
          (cv3): Conv(
            (conv): Conv2d(512, 512, kernel_size=(1, 1), stride=(1, 1))
            (act): SiLU(inplace=True)
          )
          (m): Sequential(
            (0): Bottleneck(
              (cv1): Conv(
                (conv): Conv2d(256, 256, kernel_size=(1, 1), stride=(1, 1))
                (act): SiLU(inplace=True)
              )
              (cv2): Conv(
                (conv): Conv2d(256, 256, kernel_size=(3, 3), stride=(1, 1), padding=(1, 1))
                (act): SiLU(inplace=True)
              )
            )
          )
        )
        (33): Detect(
          (m): ModuleList(
            (0): Conv2d(128, 33, kernel_size=(1, 1), stride=(1, 1))
            (1): Conv2d(256, 33, kernel_size=(1, 1), stride=(1, 1))
            (2): Conv2d(384, 33, kernel_size=(1, 1), stride=(1, 1))
            (3): Conv2d(512, 33, kernel_size=(1, 1), stride=(1, 1))
          )
        )
      )
    )
  )
)
Current location!: c:\Users\aviel\Desktop\Projects\Websites\Fripen-AI\Fripen-AI-2.0\app
Image path: c:\Users\aviel\Desktop\Projects\Websites\Fripen-AI\Fripen-AI-2.0\app\static\uploads\blueberrytest.jpg
Ran through results
Image path: None
Image path entered into if loop
old image removed
Results saved into: c:\Users\aviel\Desktop\Projects\Websites\Fripen-AI\Fripen-AI-2.0\app\static\uploads
…
  File "C:\Users\aviel\Desktop\Projects\Websites\Fripen-AI\Fripen-AI-2.0\.venv\Lib\site-packages\flask\app.py", line 902, in dispatch_request
    return self.ensure_sync(self.view_functions[rule.endpoint])(**view_args)  # type: ignore[no-any-return]
           ~~~~~~~~~~~~~~~~~~~~~~~~~~~~~~~~~~~~~~~~~~~~~~~~~~~~^^^^^^^^^^^^^
  File "c:\Users\aviel\Desktop\Projects\Websites\Fripen-AI\Fripen-AI-2.0\app\main.py", line 429, in uploaded_file
    latest_exp = exp_folders[0]
                 ~~~~~~~~~~~^^^
IndexError: list index out of range
Successful loading of model!
model: AutoShape(
  (model): DetectMultiBackend(
    (model): DetectionModel(
      (model): Sequential(
        (0): Conv(
          (conv): Conv2d(3, 32, kernel_size=(6, 6), stride=(2, 2), padding=(2, 2))
          (act): SiLU(inplace=True)
        )
        (1): Conv(
          (conv): Conv2d(32, 64, kernel_size=(3, 3), stride=(2, 2), padding=(1, 1))
          (act): SiLU(inplace=True)
        )
        (2): C3(
          (cv1): Conv(
            (conv): Conv2d(64, 32, kernel_size=(1, 1), stride=(1, 1))
            (act): SiLU(inplace=True)
          )
          (cv2): Conv(
            (conv): Conv2d(64, 32, kernel_size=(1, 1), stride=(1, 1))
            (act): SiLU(inplace=True)
          )
          (cv3): Conv(
            (conv): Conv2d(64, 64, kernel_size=(1, 1), stride=(1, 1))
            (act): SiLU(inplace=True)
          )
          (m): Sequential(
            (0): Bottleneck(
              (cv1): Conv(
                (conv): Conv2d(32, 32, kernel_size=(1, 1), stride=(1, 1))
                (act): SiLU(inplace=True)
              )
              (cv2): Conv(
                (conv): Conv2d(32, 32, kernel_size=(3, 3), stride=(1, 1), padding=(1, 1))
                (act): SiLU(inplace=True)
              )
            )
          )
        )
        (3): Conv(
          (conv): Conv2d(64, 128, kernel_size=(3, 3), stride=(2, 2), padding=(1, 1))
          (act): SiLU(inplace=True)
        )
        (4): C3(
          (cv1): Conv(
            (conv): Conv2d(128, 64, kernel_size=(1, 1), stride=(1, 1))
            (act): SiLU(inplace=True)
          )
          (cv2): Conv(
            (conv): Conv2d(128, 64, kernel_size=(1, 1), stride=(1, 1))
            (act): SiLU(inplace=True)
          )
          (cv3): Conv(
            (conv): Conv2d(128, 128, kernel_size=(1, 1), stride=(1, 1))
            (act): SiLU(inplace=True)
          )
          (m): Sequential(
            (0): Bottleneck(
              (cv1): Conv(
                (conv): Conv2d(64, 64, kernel_size=(1, 1), stride=(1, 1))
                (act): SiLU(inplace=True)
              )
              (cv2): Conv(
                (conv): Conv2d(64, 64, kernel_size=(3, 3), stride=(1, 1), padding=(1, 1))
                (act): SiLU(inplace=True)
              )
            )
            (1): Bottleneck(
              (cv1): Conv(
                (conv): Conv2d(64, 64, kernel_size=(1, 1), stride=(1, 1))
                (act): SiLU(inplace=True)
              )
              (cv2): Conv(
                (conv): Conv2d(64, 64, kernel_size=(3, 3), stride=(1, 1), padding=(1, 1))
                (act): SiLU(inplace=True)
              )
            )
          )
        )
        (5): Conv(
          (conv): Conv2d(128, 256, kernel_size=(3, 3), stride=(2, 2), padding=(1, 1))
          (act): SiLU(inplace=True)
        )
        (6): C3(
          (cv1): Conv(
            (conv): Conv2d(256, 128, kernel_size=(1, 1), stride=(1, 1))
            (act): SiLU(inplace=True)
          )
          (cv2): Conv(
            (conv): Conv2d(256, 128, kernel_size=(1, 1), stride=(1, 1))
            (act): SiLU(inplace=True)
          )
          (cv3): Conv(
            (conv): Conv2d(256, 256, kernel_size=(1, 1), stride=(1, 1))
            (act): SiLU(inplace=True)
          )
          (m): Sequential(
            (0): Bottleneck(
              (cv1): Conv(
                (conv): Conv2d(128, 128, kernel_size=(1, 1), stride=(1, 1))
                (act): SiLU(inplace=True)
              )
              (cv2): Conv(
                (conv): Conv2d(128, 128, kernel_size=(3, 3), stride=(1, 1), padding=(1, 1))
                (act): SiLU(inplace=True)
              )
            )
            (1): Bottleneck(
              (cv1): Conv(
                (conv): Conv2d(128, 128, kernel_size=(1, 1), stride=(1, 1))
                (act): SiLU(inplace=True)
              )
              (cv2): Conv(
                (conv): Conv2d(128, 128, kernel_size=(3, 3), stride=(1, 1), padding=(1, 1))
                (act): SiLU(inplace=True)
              )
            )
            (2): Bottleneck(
              (cv1): Conv(
                (conv): Conv2d(128, 128, kernel_size=(1, 1), stride=(1, 1))
                (act): SiLU(inplace=True)
              )
              (cv2): Conv(
                (conv): Conv2d(128, 128, kernel_size=(3, 3), stride=(1, 1), padding=(1, 1))
                (act): SiLU(inplace=True)
              )
            )
          )
        )
        (7): Conv(
          (conv): Conv2d(256, 384, kernel_size=(3, 3), stride=(2, 2), padding=(1, 1))
          (act): SiLU(inplace=True)
        )
        (8): C3(
          (cv1): Conv(
            (conv): Conv2d(384, 192, kernel_size=(1, 1), stride=(1, 1))
            (act): SiLU(inplace=True)
          )
          (cv2): Conv(
            (conv): Conv2d(384, 192, kernel_size=(1, 1), stride=(1, 1))
            (act): SiLU(inplace=True)
          )
          (cv3): Conv(
            (conv): Conv2d(384, 384, kernel_size=(1, 1), stride=(1, 1))
            (act): SiLU(inplace=True)
          )
          (m): Sequential(
            (0): Bottleneck(
              (cv1): Conv(
                (conv): Conv2d(192, 192, kernel_size=(1, 1), stride=(1, 1))
                (act): SiLU(inplace=True)
              )
              (cv2): Conv(
                (conv): Conv2d(192, 192, kernel_size=(3, 3), stride=(1, 1), padding=(1, 1))
                (act): SiLU(inplace=True)
              )
            )
          )
        )
        (9): Conv(
          (conv): Conv2d(384, 512, kernel_size=(3, 3), stride=(2, 2), padding=(1, 1))
          (act): SiLU(inplace=True)
        )
        (10): C3(
          (cv1): Conv(
            (conv): Conv2d(512, 256, kernel_size=(1, 1), stride=(1, 1))
            (act): SiLU(inplace=True)
          )
          (cv2): Conv(
            (conv): Conv2d(512, 256, kernel_size=(1, 1), stride=(1, 1))
            (act): SiLU(inplace=True)
          )
          (cv3): Conv(
            (conv): Conv2d(512, 512, kernel_size=(1, 1), stride=(1, 1))
            (act): SiLU(inplace=True)
          )
          (m): Sequential(
            (0): Bottleneck(
              (cv1): Conv(
                (conv): Conv2d(256, 256, kernel_size=(1, 1), stride=(1, 1))
                (act): SiLU(inplace=True)
              )
              (cv2): Conv(
                (conv): Conv2d(256, 256, kernel_size=(3, 3), stride=(1, 1), padding=(1, 1))
                (act): SiLU(inplace=True)
              )
            )
          )
        )
        (11): SPPF(
          (cv1): Conv(
            (conv): Conv2d(512, 256, kernel_size=(1, 1), stride=(1, 1))
            (act): SiLU(inplace=True)
          )
          (cv2): Conv(
            (conv): Conv2d(1024, 512, kernel_size=(1, 1), stride=(1, 1))
            (act): SiLU(inplace=True)
          )
          (m): MaxPool2d(kernel_size=5, stride=1, padding=2, dilation=1, ceil_mode=False)
        )
        (12): Conv(
          (conv): Conv2d(512, 384, kernel_size=(1, 1), stride=(1, 1))
          (act): SiLU(inplace=True)
        )
        (13): Upsample(scale_factor=2.0, mode='nearest')
        (14): Concat()
        (15): C3(
          (cv1): Conv(
            (conv): Conv2d(768, 192, kernel_size=(1, 1), stride=(1, 1))
            (act): SiLU(inplace=True)
          )
          (cv2): Conv(
            (conv): Conv2d(768, 192, kernel_size=(1, 1), stride=(1, 1))
            (act): SiLU(inplace=True)
          )
          (cv3): Conv(
            (conv): Conv2d(384, 384, kernel_size=(1, 1), stride=(1, 1))
            (act): SiLU(inplace=True)
          )
          (m): Sequential(
            (0): Bottleneck(
              (cv1): Conv(
                (conv): Conv2d(192, 192, kernel_size=(1, 1), stride=(1, 1))
                (act): SiLU(inplace=True)
              )
              (cv2): Conv(
                (conv): Conv2d(192, 192, kernel_size=(3, 3), stride=(1, 1), padding=(1, 1))
                (act): SiLU(inplace=True)
              )
            )
          )
        )
        (16): Conv(
          (conv): Conv2d(384, 256, kernel_size=(1, 1), stride=(1, 1))
          (act): SiLU(inplace=True)
        )
        (17): Upsample(scale_factor=2.0, mode='nearest')
        (18): Concat()
        (19): C3(
          (cv1): Conv(
            (conv): Conv2d(512, 128, kernel_size=(1, 1), stride=(1, 1))
            (act): SiLU(inplace=True)
          )
          (cv2): Conv(
            (conv): Conv2d(512, 128, kernel_size=(1, 1), stride=(1, 1))
            (act): SiLU(inplace=True)
          )
          (cv3): Conv(
            (conv): Conv2d(256, 256, kernel_size=(1, 1), stride=(1, 1))
            (act): SiLU(inplace=True)
          )
          (m): Sequential(
            (0): Bottleneck(
              (cv1): Conv(
                (conv): Conv2d(128, 128, kernel_size=(1, 1), stride=(1, 1))
                (act): SiLU(inplace=True)
              )
              (cv2): Conv(
                (conv): Conv2d(128, 128, kernel_size=(3, 3), stride=(1, 1), padding=(1, 1))
                (act): SiLU(inplace=True)
              )
            )
          )
        )
        (20): Conv(
          (conv): Conv2d(256, 128, kernel_size=(1, 1), stride=(1, 1))
          (act): SiLU(inplace=True)
        )
        (21): Upsample(scale_factor=2.0, mode='nearest')
        (22): Concat()
        (23): C3(
          (cv1): Conv(
            (conv): Conv2d(256, 64, kernel_size=(1, 1), stride=(1, 1))
            (act): SiLU(inplace=True)
          )
          (cv2): Conv(
            (conv): Conv2d(256, 64, kernel_size=(1, 1), stride=(1, 1))
            (act): SiLU(inplace=True)
          )
          (cv3): Conv(
            (conv): Conv2d(128, 128, kernel_size=(1, 1), stride=(1, 1))
            (act): SiLU(inplace=True)
          )
          (m): Sequential(
            (0): Bottleneck(
              (cv1): Conv(
                (conv): Conv2d(64, 64, kernel_size=(1, 1), stride=(1, 1))
                (act): SiLU(inplace=True)
              )
              (cv2): Conv(
                (conv): Conv2d(64, 64, kernel_size=(3, 3), stride=(1, 1), padding=(1, 1))
                (act): SiLU(inplace=True)
              )
            )
          )
        )
        (24): Conv(
          (conv): Conv2d(128, 128, kernel_size=(3, 3), stride=(2, 2), padding=(1, 1))
          (act): SiLU(inplace=True)
        )
        (25): Concat()
        (26): C3(
          (cv1): Conv(
            (conv): Conv2d(256, 128, kernel_size=(1, 1), stride=(1, 1))
            (act): SiLU(inplace=True)
          )
          (cv2): Conv(
            (conv): Conv2d(256, 128, kernel_size=(1, 1), stride=(1, 1))
            (act): SiLU(inplace=True)
          )
          (cv3): Conv(
            (conv): Conv2d(256, 256, kernel_size=(1, 1), stride=(1, 1))
            (act): SiLU(inplace=True)
          )
          (m): Sequential(
            (0): Bottleneck(
              (cv1): Conv(
                (conv): Conv2d(128, 128, kernel_size=(1, 1), stride=(1, 1))
                (act): SiLU(inplace=True)
              )
              (cv2): Conv(
                (conv): Conv2d(128, 128, kernel_size=(3, 3), stride=(1, 1), padding=(1, 1))
                (act): SiLU(inplace=True)
              )
            )
          )
        )
        (27): Conv(
          (conv): Conv2d(256, 256, kernel_size=(3, 3), stride=(2, 2), padding=(1, 1))
          (act): SiLU(inplace=True)
        )
        (28): Concat()
        (29): C3(
          (cv1): Conv(
            (conv): Conv2d(512, 192, kernel_size=(1, 1), stride=(1, 1))
            (act): SiLU(inplace=True)
          )
          (cv2): Conv(
            (conv): Conv2d(512, 192, kernel_size=(1, 1), stride=(1, 1))
            (act): SiLU(inplace=True)
          )
          (cv3): Conv(
            (conv): Conv2d(384, 384, kernel_size=(1, 1), stride=(1, 1))
            (act): SiLU(inplace=True)
          )
          (m): Sequential(
            (0): Bottleneck(
              (cv1): Conv(
                (conv): Conv2d(192, 192, kernel_size=(1, 1), stride=(1, 1))
                (act): SiLU(inplace=True)
              )
              (cv2): Conv(
                (conv): Conv2d(192, 192, kernel_size=(3, 3), stride=(1, 1), padding=(1, 1))
                (act): SiLU(inplace=True)
              )
            )
          )
        )
        (30): Conv(
          (conv): Conv2d(384, 384, kernel_size=(3, 3), stride=(2, 2), padding=(1, 1))
          (act): SiLU(inplace=True)
        )
        (31): Concat()
        (32): C3(
          (cv1): Conv(
            (conv): Conv2d(768, 256, kernel_size=(1, 1), stride=(1, 1))
            (act): SiLU(inplace=True)
          )
          (cv2): Conv(
            (conv): Conv2d(768, 256, kernel_size=(1, 1), stride=(1, 1))
            (act): SiLU(inplace=True)
          )
          (cv3): Conv(
            (conv): Conv2d(512, 512, kernel_size=(1, 1), stride=(1, 1))
            (act): SiLU(inplace=True)
          )
          (m): Sequential(
            (0): Bottleneck(
              (cv1): Conv(
                (conv): Conv2d(256, 256, kernel_size=(1, 1), stride=(1, 1))
                (act): SiLU(inplace=True)
              )
              (cv2): Conv(
                (conv): Conv2d(256, 256, kernel_size=(3, 3), stride=(1, 1), padding=(1, 1))
                (act): SiLU(inplace=True)
              )
            )
          )
        )
        (33): Detect(
          (m): ModuleList(
            (0): Conv2d(128, 33, kernel_size=(1, 1), stride=(1, 1))
            (1): Conv2d(256, 33, kernel_size=(1, 1), stride=(1, 1))
            (2): Conv2d(384, 33, kernel_size=(1, 1), stride=(1, 1))
            (3): Conv2d(512, 33, kernel_size=(1, 1), stride=(1, 1))
          )
        )
      )
    )
  )
)
Current location!: c:\Users\aviel\Desktop\Projects\Websites\Fripen-AI\Fripen-AI-2.0\app
Image path: c:\Users\aviel\Desktop\Projects\Websites\Fripen-AI\Fripen-AI-2.0\app\static\uploads
Ran through results
Image path: None
Image path entered into if loop
Exception on /uploads/blueberrytest.jpg [GET]
Traceback (most recent call last):
…
    return self.ensure_sync(self.view_functions[rule.endpoint])(**view_args)  # type: ignore[no-any-return]
           ~~~~~~~~~~~~~~~~~~~~~~~~~~~~~~~~~~~~~~~~~~~~~~~~~~~~^^^^^^^^^^^^^
  File "c:\Users\aviel\Desktop\Projects\Websites\Fripen-AI\Fripen-AI-2.0\app\main.py", line 415, in uploaded_file
    os.remove(image_path)
    ~~~~~~~~~^^^^^^^^^^^^
PermissionError: [WinError 5] Access is denied: 'c:\\Users\\aviel\\Desktop\\Projects\\Websites\\Fripen-AI\\Fripen-AI-2.0\\app\\static\\uploads'
Successful loading of model!
model: AutoShape(
  (model): DetectMultiBackend(
    (model): DetectionModel(
      (model): Sequential(
        (0): Conv(
          (conv): Conv2d(3, 32, kernel_size=(6, 6), stride=(2, 2), padding=(2, 2))
          (act): SiLU(inplace=True)
        )
        (1): Conv(
          (conv): Conv2d(32, 64, kernel_size=(3, 3), stride=(2, 2), padding=(1, 1))
          (act): SiLU(inplace=True)
        )
        (2): C3(
          (cv1): Conv(
            (conv): Conv2d(64, 32, kernel_size=(1, 1), stride=(1, 1))
            (act): SiLU(inplace=True)
          )
          (cv2): Conv(
            (conv): Conv2d(64, 32, kernel_size=(1, 1), stride=(1, 1))
            (act): SiLU(inplace=True)
          )
          (cv3): Conv(
            (conv): Conv2d(64, 64, kernel_size=(1, 1), stride=(1, 1))
            (act): SiLU(inplace=True)
          )
          (m): Sequential(
            (0): Bottleneck(
              (cv1): Conv(
                (conv): Conv2d(32, 32, kernel_size=(1, 1), stride=(1, 1))
                (act): SiLU(inplace=True)
              )
              (cv2): Conv(
                (conv): Conv2d(32, 32, kernel_size=(3, 3), stride=(1, 1), padding=(1, 1))
                (act): SiLU(inplace=True)
              )
            )
          )
        )
        (3): Conv(
          (conv): Conv2d(64, 128, kernel_size=(3, 3), stride=(2, 2), padding=(1, 1))
          (act): SiLU(inplace=True)
        )
        (4): C3(
          (cv1): Conv(
            (conv): Conv2d(128, 64, kernel_size=(1, 1), stride=(1, 1))
            (act): SiLU(inplace=True)
          )
          (cv2): Conv(
            (conv): Conv2d(128, 64, kernel_size=(1, 1), stride=(1, 1))
            (act): SiLU(inplace=True)
          )
          (cv3): Conv(
            (conv): Conv2d(128, 128, kernel_size=(1, 1), stride=(1, 1))
            (act): SiLU(inplace=True)
          )
          (m): Sequential(
            (0): Bottleneck(
              (cv1): Conv(
                (conv): Conv2d(64, 64, kernel_size=(1, 1), stride=(1, 1))
                (act): SiLU(inplace=True)
              )
              (cv2): Conv(
                (conv): Conv2d(64, 64, kernel_size=(3, 3), stride=(1, 1), padding=(1, 1))
                (act): SiLU(inplace=True)
              )
            )
            (1): Bottleneck(
              (cv1): Conv(
                (conv): Conv2d(64, 64, kernel_size=(1, 1), stride=(1, 1))
                (act): SiLU(inplace=True)
              )
              (cv2): Conv(
                (conv): Conv2d(64, 64, kernel_size=(3, 3), stride=(1, 1), padding=(1, 1))
                (act): SiLU(inplace=True)
              )
            )
          )
        )
        (5): Conv(
          (conv): Conv2d(128, 256, kernel_size=(3, 3), stride=(2, 2), padding=(1, 1))
          (act): SiLU(inplace=True)
        )
        (6): C3(
          (cv1): Conv(
            (conv): Conv2d(256, 128, kernel_size=(1, 1), stride=(1, 1))
            (act): SiLU(inplace=True)
          )
          (cv2): Conv(
            (conv): Conv2d(256, 128, kernel_size=(1, 1), stride=(1, 1))
            (act): SiLU(inplace=True)
          )
          (cv3): Conv(
            (conv): Conv2d(256, 256, kernel_size=(1, 1), stride=(1, 1))
            (act): SiLU(inplace=True)
          )
          (m): Sequential(
            (0): Bottleneck(
              (cv1): Conv(
                (conv): Conv2d(128, 128, kernel_size=(1, 1), stride=(1, 1))
                (act): SiLU(inplace=True)
              )
              (cv2): Conv(
                (conv): Conv2d(128, 128, kernel_size=(3, 3), stride=(1, 1), padding=(1, 1))
                (act): SiLU(inplace=True)
              )
            )
            (1): Bottleneck(
              (cv1): Conv(
                (conv): Conv2d(128, 128, kernel_size=(1, 1), stride=(1, 1))
                (act): SiLU(inplace=True)
              )
              (cv2): Conv(
                (conv): Conv2d(128, 128, kernel_size=(3, 3), stride=(1, 1), padding=(1, 1))
                (act): SiLU(inplace=True)
              )
            )
            (2): Bottleneck(
              (cv1): Conv(
                (conv): Conv2d(128, 128, kernel_size=(1, 1), stride=(1, 1))
                (act): SiLU(inplace=True)
              )
              (cv2): Conv(
                (conv): Conv2d(128, 128, kernel_size=(3, 3), stride=(1, 1), padding=(1, 1))
                (act): SiLU(inplace=True)
              )
            )
          )
        )
        (7): Conv(
          (conv): Conv2d(256, 384, kernel_size=(3, 3), stride=(2, 2), padding=(1, 1))
          (act): SiLU(inplace=True)
        )
        (8): C3(
          (cv1): Conv(
            (conv): Conv2d(384, 192, kernel_size=(1, 1), stride=(1, 1))
            (act): SiLU(inplace=True)
          )
          (cv2): Conv(
            (conv): Conv2d(384, 192, kernel_size=(1, 1), stride=(1, 1))
            (act): SiLU(inplace=True)
          )
          (cv3): Conv(
            (conv): Conv2d(384, 384, kernel_size=(1, 1), stride=(1, 1))
            (act): SiLU(inplace=True)
          )
          (m): Sequential(
            (0): Bottleneck(
              (cv1): Conv(
                (conv): Conv2d(192, 192, kernel_size=(1, 1), stride=(1, 1))
                (act): SiLU(inplace=True)
              )
              (cv2): Conv(
                (conv): Conv2d(192, 192, kernel_size=(3, 3), stride=(1, 1), padding=(1, 1))
                (act): SiLU(inplace=True)
              )
            )
          )
        )
        (9): Conv(
          (conv): Conv2d(384, 512, kernel_size=(3, 3), stride=(2, 2), padding=(1, 1))
          (act): SiLU(inplace=True)
        )
        (10): C3(
          (cv1): Conv(
            (conv): Conv2d(512, 256, kernel_size=(1, 1), stride=(1, 1))
            (act): SiLU(inplace=True)
          )
          (cv2): Conv(
            (conv): Conv2d(512, 256, kernel_size=(1, 1), stride=(1, 1))
            (act): SiLU(inplace=True)
          )
          (cv3): Conv(
            (conv): Conv2d(512, 512, kernel_size=(1, 1), stride=(1, 1))
            (act): SiLU(inplace=True)
          )
          (m): Sequential(
            (0): Bottleneck(
              (cv1): Conv(
                (conv): Conv2d(256, 256, kernel_size=(1, 1), stride=(1, 1))
                (act): SiLU(inplace=True)
              )
              (cv2): Conv(
                (conv): Conv2d(256, 256, kernel_size=(3, 3), stride=(1, 1), padding=(1, 1))
                (act): SiLU(inplace=True)
              )
            )
          )
        )
        (11): SPPF(
          (cv1): Conv(
…
        (13): Upsample(scale_factor=2.0, mode='nearest')
        (14): Concat()
        (15): C3(
          (cv1): Conv(
            (conv): Conv2d(768, 192, kernel_size=(1, 1), stride=(1, 1))
            (act): SiLU(inplace=True)
          )
          (cv2): Conv(
            (conv): Conv2d(768, 192, kernel_size=(1, 1), stride=(1, 1))
            (act): SiLU(inplace=True)
          )
          (cv3): Conv(
            (conv): Conv2d(384, 384, kernel_size=(1, 1), stride=(1, 1))
            (act): SiLU(inplace=True)
          )
          (m): Sequential(
            (0): Bottleneck(
              (cv1): Conv(
                (conv): Conv2d(192, 192, kernel_size=(1, 1), stride=(1, 1))
                (act): SiLU(inplace=True)
              )
              (cv2): Conv(
                (conv): Conv2d(192, 192, kernel_size=(3, 3), stride=(1, 1), padding=(1, 1))
                (act): SiLU(inplace=True)
              )
            )
          )
        )
        (16): Conv(
          (conv): Conv2d(384, 256, kernel_size=(1, 1), stride=(1, 1))
          (act): SiLU(inplace=True)
        )
        (17): Upsample(scale_factor=2.0, mode='nearest')
        (18): Concat()
        (19): C3(
          (cv1): Conv(
            (conv): Conv2d(512, 128, kernel_size=(1, 1), stride=(1, 1))
            (act): SiLU(inplace=True)
          )
          (cv2): Conv(
            (conv): Conv2d(512, 128, kernel_size=(1, 1), stride=(1, 1))
            (act): SiLU(inplace=True)
          )
          (cv3): Conv(
            (conv): Conv2d(256, 256, kernel_size=(1, 1), stride=(1, 1))
            (act): SiLU(inplace=True)
          )
          (m): Sequential(
            (0): Bottleneck(
              (cv1): Conv(
                (conv): Conv2d(128, 128, kernel_size=(1, 1), stride=(1, 1))
                (act): SiLU(inplace=True)
              )
              (cv2): Conv(
                (conv): Conv2d(128, 128, kernel_size=(3, 3), stride=(1, 1), padding=(1, 1))
                (act): SiLU(inplace=True)
              )
            )
          )
        )
        (20): Conv(
          (conv): Conv2d(256, 128, kernel_size=(1, 1), stride=(1, 1))
          (act): SiLU(inplace=True)
        )
        (21): Upsample(scale_factor=2.0, mode='nearest')
        (22): Concat()
        (23): C3(
          (cv1): Conv(
            (conv): Conv2d(256, 64, kernel_size=(1, 1), stride=(1, 1))
            (act): SiLU(inplace=True)
          )
          (cv2): Conv(
            (conv): Conv2d(256, 64, kernel_size=(1, 1), stride=(1, 1))
            (act): SiLU(inplace=True)
          )
          (cv3): Conv(
            (conv): Conv2d(128, 128, kernel_size=(1, 1), stride=(1, 1))
            (act): SiLU(inplace=True)
          )
          (m): Sequential(
            (0): Bottleneck(
              (cv1): Conv(
                (conv): Conv2d(64, 64, kernel_size=(1, 1), stride=(1, 1))
                (act): SiLU(inplace=True)
              )
              (cv2): Conv(
                (conv): Conv2d(64, 64, kernel_size=(3, 3), stride=(1, 1), padding=(1, 1))
                (act): SiLU(inplace=True)
              )
            )
          )
        )
        (24): Conv(
          (conv): Conv2d(128, 128, kernel_size=(3, 3), stride=(2, 2), padding=(1, 1))
          (act): SiLU(inplace=True)
        )
        (25): Concat()
        (26): C3(
          (cv1): Conv(
            (conv): Conv2d(256, 128, kernel_size=(1, 1), stride=(1, 1))
            (act): SiLU(inplace=True)
          )
          (cv2): Conv(
            (conv): Conv2d(256, 128, kernel_size=(1, 1), stride=(1, 1))
            (act): SiLU(inplace=True)
          )
          (cv3): Conv(
            (conv): Conv2d(256, 256, kernel_size=(1, 1), stride=(1, 1))
            (act): SiLU(inplace=True)
          )
          (m): Sequential(
            (0): Bottleneck(
              (cv1): Conv(
                (conv): Conv2d(128, 128, kernel_size=(1, 1), stride=(1, 1))
                (act): SiLU(inplace=True)
              )
              (cv2): Conv(
                (conv): Conv2d(128, 128, kernel_size=(3, 3), stride=(1, 1), padding=(1, 1))
                (act): SiLU(inplace=True)
              )
            )
          )
        )
        (27): Conv(
          (conv): Conv2d(256, 256, kernel_size=(3, 3), stride=(2, 2), padding=(1, 1))
          (act): SiLU(inplace=True)
        )
        (28): Concat()
        (29): C3(
          (cv1): Conv(
            (conv): Conv2d(512, 192, kernel_size=(1, 1), stride=(1, 1))
            (act): SiLU(inplace=True)
          )
          (cv2): Conv(
            (conv): Conv2d(512, 192, kernel_size=(1, 1), stride=(1, 1))
            (act): SiLU(inplace=True)
          )
          (cv3): Conv(
            (conv): Conv2d(384, 384, kernel_size=(1, 1), stride=(1, 1))
            (act): SiLU(inplace=True)
          )
          (m): Sequential(
            (0): Bottleneck(
              (cv1): Conv(
                (conv): Conv2d(192, 192, kernel_size=(1, 1), stride=(1, 1))
                (act): SiLU(inplace=True)
              )
              (cv2): Conv(
                (conv): Conv2d(192, 192, kernel_size=(3, 3), stride=(1, 1), padding=(1, 1))
                (act): SiLU(inplace=True)
              )
            )
          )
        )
        (30): Conv(
          (conv): Conv2d(384, 384, kernel_size=(3, 3), stride=(2, 2), padding=(1, 1))
          (act): SiLU(inplace=True)
        )
        (31): Concat()
        (32): C3(
          (cv1): Conv(
            (conv): Conv2d(768, 256, kernel_size=(1, 1), stride=(1, 1))
            (act): SiLU(inplace=True)
          )
          (cv2): Conv(
            (conv): Conv2d(768, 256, kernel_size=(1, 1), stride=(1, 1))
            (act): SiLU(inplace=True)
          )
          (cv3): Conv(
            (conv): Conv2d(512, 512, kernel_size=(1, 1), stride=(1, 1))
            (act): SiLU(inplace=True)
          )
          (m): Sequential(
            (0): Bottleneck(
              (cv1): Conv(
                (conv): Conv2d(256, 256, kernel_size=(1, 1), stride=(1, 1))
                (act): SiLU(inplace=True)
              )
              (cv2): Conv(
                (conv): Conv2d(256, 256, kernel_size=(3, 3), stride=(1, 1), padding=(1, 1))
                (act): SiLU(inplace=True)
              )
            )
          )
        )
        (33): Detect(
          (m): ModuleList(
            (0): Conv2d(128, 33, kernel_size=(1, 1), stride=(1, 1))
            (1): Conv2d(256, 33, kernel_size=(1, 1), stride=(1, 1))
            (2): Conv2d(384, 33, kernel_size=(1, 1), stride=(1, 1))
            (3): Conv2d(512, 33, kernel_size=(1, 1), stride=(1, 1))
          )
        )
      )
    )
  )
)
Current location!: c:\Users\aviel\Desktop\Projects\Websites\Fripen-AI\Fripen-AI-2.0\app
Image path: c:\Users\aviel\Desktop\Projects\Websites\Fripen-AI\Fripen-AI-2.0\app\static\uploads\blueberrytest.jpg
Ran through results
Image path: None
Image path entered into if loop
old image removed
Results saved into: c:\Users\aviel\Desktop\Projects\Websites\Fripen-AI\Fripen-AI-2.0\app\static\uploads\blueberrytest.jpg
…
Current location!: c:\Users\aviel\Desktop\Projects\Websites\Fripen-AI\Fripen-AI-2.0\app
Image path: c:\Users\aviel\Desktop\Projects\Websites\Fripen-AI\Fripen-AI-2.0\app\static\uploads\blueberries-1296x728-feature.jpg
Ran through results
Image path: None
Image path entered into if loop
old image removed
Results saved into: c:\Users\aviel\Desktop\Projects\Websites\Fripen-AI\Fripen-AI-2.0\app\static\uploads\blueberries-1296x728-feature.jpg
AT the RETURN STATEMENT
Successful loading of model!
model: AutoShape(
  (model): DetectMultiBackend(
    (model): DetectionModel(
      (model): Sequential(
        (0): Conv(
          (conv): Conv2d(3, 32, kernel_size=(6, 6), stride=(2, 2), padding=(2, 2))
          (act): SiLU(inplace=True)
        )
        (1): Conv(
          (conv): Conv2d(32, 64, kernel_size=(3, 3), stride=(2, 2), padding=(1, 1))
          (act): SiLU(inplace=True)
        )
        (2): C3(
          (cv1): Conv(
            (conv): Conv2d(64, 32, kernel_size=(1, 1), stride=(1, 1))
            (act): SiLU(inplace=True)
          )
          (cv2): Conv(
            (conv): Conv2d(64, 32, kernel_size=(1, 1), stride=(1, 1))
            (act): SiLU(inplace=True)
          )
          (cv3): Conv(
            (conv): Conv2d(64, 64, kernel_size=(1, 1), stride=(1, 1))
            (act): SiLU(inplace=True)
          )
          (m): Sequential(
            (0): Bottleneck(
              (cv1): Conv(
                (conv): Conv2d(32, 32, kernel_size=(1, 1), stride=(1, 1))
                (act): SiLU(inplace=True)
              )
              (cv2): Conv(
                (conv): Conv2d(32, 32, kernel_size=(3, 3), stride=(1, 1), padding=(1, 1))
                (act): SiLU(inplace=True)
              )
            )
          )
        )
        (3): Conv(
          (conv): Conv2d(64, 128, kernel_size=(3, 3), stride=(2, 2), padding=(1, 1))
          (act): SiLU(inplace=True)
        )
        (4): C3(
          (cv1): Conv(
            (conv): Conv2d(128, 64, kernel_size=(1, 1), stride=(1, 1))
            (act): SiLU(inplace=True)
          )
          (cv2): Conv(
            (conv): Conv2d(128, 64, kernel_size=(1, 1), stride=(1, 1))
            (act): SiLU(inplace=True)
          )
          (cv3): Conv(
            (conv): Conv2d(128, 128, kernel_size=(1, 1), stride=(1, 1))
            (act): SiLU(inplace=True)
          )
          (m): Sequential(
            (0): Bottleneck(
              (cv1): Conv(
                (conv): Conv2d(64, 64, kernel_size=(1, 1), stride=(1, 1))
                (act): SiLU(inplace=True)
              )
              (cv2): Conv(
                (conv): Conv2d(64, 64, kernel_size=(3, 3), stride=(1, 1), padding=(1, 1))
                (act): SiLU(inplace=True)
              )
            )
            (1): Bottleneck(
              (cv1): Conv(
                (conv): Conv2d(64, 64, kernel_size=(1, 1), stride=(1, 1))
                (act): SiLU(inplace=True)
              )
              (cv2): Conv(
                (conv): Conv2d(64, 64, kernel_size=(3, 3), stride=(1, 1), padding=(1, 1))
                (act): SiLU(inplace=True)
              )
            )
          )
        )
        (5): Conv(
          (conv): Conv2d(128, 256, kernel_size=(3, 3), stride=(2, 2), padding=(1, 1))
          (act): SiLU(inplace=True)
        )
        (6): C3(
          (cv1): Conv(
            (conv): Conv2d(256, 128, kernel_size=(1, 1), stride=(1, 1))
            (act): SiLU(inplace=True)
          )
          (cv2): Conv(
            (conv): Conv2d(256, 128, kernel_size=(1, 1), stride=(1, 1))
            (act): SiLU(inplace=True)
          )
          (cv3): Conv(
            (conv): Conv2d(256, 256, kernel_size=(1, 1), stride=(1, 1))
            (act): SiLU(inplace=True)
          )
          (m): Sequential(
            (0): Bottleneck(
              (cv1): Conv(
                (conv): Conv2d(128, 128, kernel_size=(1, 1), stride=(1, 1))
                (act): SiLU(inplace=True)
              )
              (cv2): Conv(
                (conv): Conv2d(128, 128, kernel_size=(3, 3), stride=(1, 1), padding=(1, 1))
                (act): SiLU(inplace=True)
              )
            )
            (1): Bottleneck(
              (cv1): Conv(
                (conv): Conv2d(128, 128, kernel_size=(1, 1), stride=(1, 1))
                (act): SiLU(inplace=True)
              )
              (cv2): Conv(
                (conv): Conv2d(128, 128, kernel_size=(3, 3), stride=(1, 1), padding=(1, 1))
                (act): SiLU(inplace=True)
              )
            )
            (2): Bottleneck(
              (cv1): Conv(
                (conv): Conv2d(128, 128, kernel_size=(1, 1), stride=(1, 1))
                (act): SiLU(inplace=True)
              )
              (cv2): Conv(
                (conv): Conv2d(128, 128, kernel_size=(3, 3), stride=(1, 1), padding=(1, 1))
                (act): SiLU(inplace=True)
              )
            )
          )
        )
        (7): Conv(
          (conv): Conv2d(256, 384, kernel_size=(3, 3), stride=(2, 2), padding=(1, 1))
          (act): SiLU(inplace=True)
        )
        (8): C3(
          (cv1): Conv(
            (conv): Conv2d(384, 192, kernel_size=(1, 1), stride=(1, 1))
            (act): SiLU(inplace=True)
          )
          (cv2): Conv(
            (conv): Conv2d(384, 192, kernel_size=(1, 1), stride=(1, 1))
            (act): SiLU(inplace=True)
          )
          (cv3): Conv(
            (conv): Conv2d(384, 384, kernel_size=(1, 1), stride=(1, 1))
            (act): SiLU(inplace=True)
          )
          (m): Sequential(
            (0): Bottleneck(
              (cv1): Conv(
                (conv): Conv2d(192, 192, kernel_size=(1, 1), stride=(1, 1))
                (act): SiLU(inplace=True)
              )
              (cv2): Conv(
                (conv): Conv2d(192, 192, kernel_size=(3, 3), stride=(1, 1), padding=(1, 1))
                (act): SiLU(inplace=True)
              )
            )
          )
        )
        (9): Conv(
          (conv): Conv2d(384, 512, kernel_size=(3, 3), stride=(2, 2), padding=(1, 1))
          (act): SiLU(inplace=True)
        )
        (10): C3(
          (cv1): Conv(
            (conv): Conv2d(512, 256, kernel_size=(1, 1), stride=(1, 1))
            (act): SiLU(inplace=True)
          )
          (cv2): Conv(
            (conv): Conv2d(512, 256, kernel_size=(1, 1), stride=(1, 1))
            (act): SiLU(inplace=True)
          )
          (cv3): Conv(
            (conv): Conv2d(512, 512, kernel_size=(1, 1), stride=(1, 1))
            (act): SiLU(inplace=True)
          )
          (m): Sequential(
            (0): Bottleneck(
              (cv1): Conv(
                (conv): Conv2d(256, 256, kernel_size=(1, 1), stride=(1, 1))
                (act): SiLU(inplace=True)
              )
              (cv2): Conv(
                (conv): Conv2d(256, 256, kernel_size=(3, 3), stride=(1, 1), padding=(1, 1))
                (act): SiLU(inplace=True)
              )
            )
          )
        )
        (11): SPPF(
          (cv1): Conv(
            (conv): Conv2d(512, 256, kernel_size=(1, 1), stride=(1, 1))
            (act): SiLU(inplace=True)
          )
          (cv2): Conv(
            (conv): Conv2d(1024, 512, kernel_size=(1, 1), stride=(1, 1))
            (act): SiLU(inplace=True)
          )
          (m): MaxPool2d(kernel_size=5, stride=1, padding=2, dilation=1, ceil_mode=False)
        )
        (12): Conv(
          (conv): Conv2d(512, 384, kernel_size=(1, 1), stride=(1, 1))
          (act): SiLU(inplace=True)
        )
        (13): Upsample(scale_factor=2.0, mode='nearest')
        (14): Concat()
        (15): C3(
          (cv1): Conv(
            (conv): Conv2d(768, 192, kernel_size=(1, 1), stride=(1, 1))
            (act): SiLU(inplace=True)
          )
          (cv2): Conv(
            (conv): Conv2d(768, 192, kernel_size=(1, 1), stride=(1, 1))
            (act): SiLU(inplace=True)
          )
          (cv3): Conv(
            (conv): Conv2d(384, 384, kernel_size=(1, 1), stride=(1, 1))
            (act): SiLU(inplace=True)
          )
          (m): Sequential(
            (0): Bottleneck(
              (cv1): Conv(
                (conv): Conv2d(192, 192, kernel_size=(1, 1), stride=(1, 1))
                (act): SiLU(inplace=True)
              )
              (cv2): Conv(
                (conv): Conv2d(192, 192, kernel_size=(3, 3), stride=(1, 1), padding=(1, 1))
                (act): SiLU(inplace=True)
              )
            )
          )
        )
        (16): Conv(
          (conv): Conv2d(384, 256, kernel_size=(1, 1), stride=(1, 1))
          (act): SiLU(inplace=True)
        )
        (17): Upsample(scale_factor=2.0, mode='nearest')
        (18): Concat()
        (19): C3(
          (cv1): Conv(
            (conv): Conv2d(512, 128, kernel_size=(1, 1), stride=(1, 1))
            (act): SiLU(inplace=True)
          )
          (cv2): Conv(
            (conv): Conv2d(512, 128, kernel_size=(1, 1), stride=(1, 1))
            (act): SiLU(inplace=True)
          )
          (cv3): Conv(
            (conv): Conv2d(256, 256, kernel_size=(1, 1), stride=(1, 1))
            (act): SiLU(inplace=True)
          )
          (m): Sequential(
            (0): Bottleneck(
              (cv1): Conv(
                (conv): Conv2d(128, 128, kernel_size=(1, 1), stride=(1, 1))
                (act): SiLU(inplace=True)
              )
              (cv2): Conv(
                (conv): Conv2d(128, 128, kernel_size=(3, 3), stride=(1, 1), padding=(1, 1))
                (act): SiLU(inplace=True)
              )
            )
          )
        )
        (20): Conv(
          (conv): Conv2d(256, 128, kernel_size=(1, 1), stride=(1, 1))
          (act): SiLU(inplace=True)
        )
        (21): Upsample(scale_factor=2.0, mode='nearest')
        (22): Concat()
        (23): C3(
          (cv1): Conv(
            (conv): Conv2d(256, 64, kernel_size=(1, 1), stride=(1, 1))
            (act): SiLU(inplace=True)
          )
          (cv2): Conv(
            (conv): Conv2d(256, 64, kernel_size=(1, 1), stride=(1, 1))
            (act): SiLU(inplace=True)
          )
          (cv3): Conv(
            (conv): Conv2d(128, 128, kernel_size=(1, 1), stride=(1, 1))
            (act): SiLU(inplace=True)
          )
          (m): Sequential(
            (0): Bottleneck(
              (cv1): Conv(
                (conv): Conv2d(64, 64, kernel_size=(1, 1), stride=(1, 1))
                (act): SiLU(inplace=True)
              )
              (cv2): Conv(
                (conv): Conv2d(64, 64, kernel_size=(3, 3), stride=(1, 1), padding=(1, 1))
                (act): SiLU(inplace=True)
              )
            )
          )
        )
        (24): Conv(
          (conv): Conv2d(128, 128, kernel_size=(3, 3), stride=(2, 2), padding=(1, 1))
          (act): SiLU(inplace=True)
        )
        (25): Concat()
        (26): C3(
          (cv1): Conv(
            (conv): Conv2d(256, 128, kernel_size=(1, 1), stride=(1, 1))
            (act): SiLU(inplace=True)
          )
          (cv2): Conv(
            (conv): Conv2d(256, 128, kernel_size=(1, 1), stride=(1, 1))
            (act): SiLU(inplace=True)
          )
          (cv3): Conv(
            (conv): Conv2d(256, 256, kernel_size=(1, 1), stride=(1, 1))
            (act): SiLU(inplace=True)
          )
          (m): Sequential(
            (0): Bottleneck(
              (cv1): Conv(
                (conv): Conv2d(128, 128, kernel_size=(1, 1), stride=(1, 1))
                (act): SiLU(inplace=True)
              )
              (cv2): Conv(
                (conv): Conv2d(128, 128, kernel_size=(3, 3), stride=(1, 1), padding=(1, 1))
                (act): SiLU(inplace=True)
              )
            )
          )
        )
        (27): Conv(
          (conv): Conv2d(256, 256, kernel_size=(3, 3), stride=(2, 2), padding=(1, 1))
          (act): SiLU(inplace=True)
        )
        (28): Concat()
        (29): C3(
          (cv1): Conv(
            (conv): Conv2d(512, 192, kernel_size=(1, 1), stride=(1, 1))
            (act): SiLU(inplace=True)
          )
          (cv2): Conv(
            (conv): Conv2d(512, 192, kernel_size=(1, 1), stride=(1, 1))
            (act): SiLU(inplace=True)
          )
          (cv3): Conv(
            (conv): Conv2d(384, 384, kernel_size=(1, 1), stride=(1, 1))
            (act): SiLU(inplace=True)
          )
          (m): Sequential(
            (0): Bottleneck(
              (cv1): Conv(
                (conv): Conv2d(192, 192, kernel_size=(1, 1), stride=(1, 1))
                (act): SiLU(inplace=True)
              )
              (cv2): Conv(
                (conv): Conv2d(192, 192, kernel_size=(3, 3), stride=(1, 1), padding=(1, 1))
                (act): SiLU(inplace=True)
              )
            )
          )
        )
        (30): Conv(
          (conv): Conv2d(384, 384, kernel_size=(3, 3), stride=(2, 2), padding=(1, 1))
          (act): SiLU(inplace=True)
        )
        (31): Concat()
        (32): C3(
          (cv1): Conv(
            (conv): Conv2d(768, 256, kernel_size=(1, 1), stride=(1, 1))
            (act): SiLU(inplace=True)
          )
          (cv2): Conv(
            (conv): Conv2d(768, 256, kernel_size=(1, 1), stride=(1, 1))
            (act): SiLU(inplace=True)
          )
          (cv3): Conv(
            (conv): Conv2d(512, 512, kernel_size=(1, 1), stride=(1, 1))
            (act): SiLU(inplace=True)
          )
          (m): Sequential(
            (0): Bottleneck(
              (cv1): Conv(
                (conv): Conv2d(256, 256, kernel_size=(1, 1), stride=(1, 1))
                (act): SiLU(inplace=True)
              )
              (cv2): Conv(
                (conv): Conv2d(256, 256, kernel_size=(3, 3), stride=(1, 1), padding=(1, 1))
                (act): SiLU(inplace=True)
              )
            )
          )
        )
        (33): Detect(
          (m): ModuleList(
            (0): Conv2d(128, 33, kernel_size=(1, 1), stride=(1, 1))
            (1): Conv2d(256, 33, kernel_size=(1, 1), stride=(1, 1))
            (2): Conv2d(384, 33, kernel_size=(1, 1), stride=(1, 1))
            (3): Conv2d(512, 33, kernel_size=(1, 1), stride=(1, 1))
          )
        )
      )
    )
  )
)
Current location!: c:\Users\aviel\Desktop\Projects\Websites\Fripen-AI\Fripen-AI-2.0\app
Image path: c:\Users\aviel\Desktop\Projects\Websites\Fripen-AI\Fripen-AI-2.0\app\static\uploads\blueberrytest.jpg
Ran through results
Image path: None
Image path entered into if loop
old image removed
Results saved into: c:\Users\aviel\Desktop\Projects\Websites\Fripen-AI\Fripen-AI-2.0\app\static\uploads\blueberrytest.jpg
AT the RETURN STATEMENT
Successful loading of model!
model: AutoShape(
  (model): DetectMultiBackend(
    (model): DetectionModel(
      (model): Sequential(
        (0): Conv(
          (conv): Conv2d(3, 32, kernel_size=(6, 6), stride=(2, 2), padding=(2, 2))
          (act): SiLU(inplace=True)
        )
        (1): Conv(
          (conv): Conv2d(32, 64, kernel_size=(3, 3), stride=(2, 2), padding=(1, 1))
          (act): SiLU(inplace=True)
        )
        (2): C3(
          (cv1): Conv(
            (conv): Conv2d(64, 32, kernel_size=(1, 1), stride=(1, 1))
            (act): SiLU(inplace=True)
          )
          (cv2): Conv(
            (conv): Conv2d(64, 32, kernel_size=(1, 1), stride=(1, 1))
            (act): SiLU(inplace=True)
          )
          (cv3): Conv(
            (conv): Conv2d(64, 64, kernel_size=(1, 1), stride=(1, 1))
            (act): SiLU(inplace=True)
          )
          (m): Sequential(
            (0): Bottleneck(
              (cv1): Conv(
                (conv): Conv2d(32, 32, kernel_size=(1, 1), stride=(1, 1))
                (act): SiLU(inplace=True)
              )
              (cv2): Conv(
                (conv): Conv2d(32, 32, kernel_size=(3, 3), stride=(1, 1), padding=(1, 1))
                (act): SiLU(inplace=True)
              )
            )
          )
        )
        (3): Conv(
          (conv): Conv2d(64, 128, kernel_size=(3, 3), stride=(2, 2), padding=(1, 1))
          (act): SiLU(inplace=True)
        )
        (4): C3(
          (cv1): Conv(
            (conv): Conv2d(128, 64, kernel_size=(1, 1), stride=(1, 1))
            (act): SiLU(inplace=True)
          )
          (cv2): Conv(
            (conv): Conv2d(128, 64, kernel_size=(1, 1), stride=(1, 1))
            (act): SiLU(inplace=True)
          )
          (cv3): Conv(
            (conv): Conv2d(128, 128, kernel_size=(1, 1), stride=(1, 1))
            (act): SiLU(inplace=True)
          )
          (m): Sequential(
            (0): Bottleneck(
              (cv1): Conv(
                (conv): Conv2d(64, 64, kernel_size=(1, 1), stride=(1, 1))
                (act): SiLU(inplace=True)
              )
              (cv2): Conv(
                (conv): Conv2d(64, 64, kernel_size=(3, 3), stride=(1, 1), padding=(1, 1))
                (act): SiLU(inplace=True)
              )
            )
            (1): Bottleneck(
              (cv1): Conv(
                (conv): Conv2d(64, 64, kernel_size=(1, 1), stride=(1, 1))
                (act): SiLU(inplace=True)
              )
              (cv2): Conv(
                (conv): Conv2d(64, 64, kernel_size=(3, 3), stride=(1, 1), padding=(1, 1))
                (act): SiLU(inplace=True)
              )
            )
          )
        )
        (5): Conv(
          (conv): Conv2d(128, 256, kernel_size=(3, 3), stride=(2, 2), padding=(1, 1))
          (act): SiLU(inplace=True)
        )
        (6): C3(
          (cv1): Conv(
            (conv): Conv2d(256, 128, kernel_size=(1, 1), stride=(1, 1))
            (act): SiLU(inplace=True)
          )
          (cv2): Conv(
            (conv): Conv2d(256, 128, kernel_size=(1, 1), stride=(1, 1))
            (act): SiLU(inplace=True)
          )
          (cv3): Conv(
            (conv): Conv2d(256, 256, kernel_size=(1, 1), stride=(1, 1))
            (act): SiLU(inplace=True)
          )
          (m): Sequential(
            (0): Bottleneck(
              (cv1): Conv(
                (conv): Conv2d(128, 128, kernel_size=(1, 1), stride=(1, 1))
                (act): SiLU(inplace=True)
              )
              (cv2): Conv(
                (conv): Conv2d(128, 128, kernel_size=(3, 3), stride=(1, 1), padding=(1, 1))
                (act): SiLU(inplace=True)
              )
            )
            (1): Bottleneck(
              (cv1): Conv(
                (conv): Conv2d(128, 128, kernel_size=(1, 1), stride=(1, 1))
                (act): SiLU(inplace=True)
              )
              (cv2): Conv(
                (conv): Conv2d(128, 128, kernel_size=(3, 3), stride=(1, 1), padding=(1, 1))
                (act): SiLU(inplace=True)
              )
            )
            (2): Bottleneck(
              (cv1): Conv(
                (conv): Conv2d(128, 128, kernel_size=(1, 1), stride=(1, 1))
                (act): SiLU(inplace=True)
              )
              (cv2): Conv(
                (conv): Conv2d(128, 128, kernel_size=(3, 3), stride=(1, 1), padding=(1, 1))
                (act): SiLU(inplace=True)
              )
            )
          )
        )
        (7): Conv(
          (conv): Conv2d(256, 384, kernel_size=(3, 3), stride=(2, 2), padding=(1, 1))
          (act): SiLU(inplace=True)
        )
        (8): C3(
          (cv1): Conv(
            (conv): Conv2d(384, 192, kernel_size=(1, 1), stride=(1, 1))
            (act): SiLU(inplace=True)
          )
          (cv2): Conv(
            (conv): Conv2d(384, 192, kernel_size=(1, 1), stride=(1, 1))
            (act): SiLU(inplace=True)
          )
          (cv3): Conv(
            (conv): Conv2d(384, 384, kernel_size=(1, 1), stride=(1, 1))
            (act): SiLU(inplace=True)
          )
          (m): Sequential(
            (0): Bottleneck(
              (cv1): Conv(
                (conv): Conv2d(192, 192, kernel_size=(1, 1), stride=(1, 1))
                (act): SiLU(inplace=True)
              )
              (cv2): Conv(
                (conv): Conv2d(192, 192, kernel_size=(3, 3), stride=(1, 1), padding=(1, 1))
                (act): SiLU(inplace=True)
              )
            )
          )
        )
        (9): Conv(
          (conv): Conv2d(384, 512, kernel_size=(3, 3), stride=(2, 2), padding=(1, 1))
          (act): SiLU(inplace=True)
        )
        (10): C3(
          (cv1): Conv(
            (conv): Conv2d(512, 256, kernel_size=(1, 1), stride=(1, 1))
            (act): SiLU(inplace=True)
          )
          (cv2): Conv(
            (conv): Conv2d(512, 256, kernel_size=(1, 1), stride=(1, 1))
            (act): SiLU(inplace=True)
          )
          (cv3): Conv(
            (conv): Conv2d(512, 512, kernel_size=(1, 1), stride=(1, 1))
            (act): SiLU(inplace=True)
          )
          (m): Sequential(
            (0): Bottleneck(
              (cv1): Conv(
                (conv): Conv2d(256, 256, kernel_size=(1, 1), stride=(1, 1))
                (act): SiLU(inplace=True)
              )
              (cv2): Conv(
                (conv): Conv2d(256, 256, kernel_size=(3, 3), stride=(1, 1), padding=(1, 1))
                (act): SiLU(inplace=True)
              )
            )
          )
        )
        (11): SPPF(
          (cv1): Conv(
            (conv): Conv2d(512, 256, kernel_size=(1, 1), stride=(1, 1))
            (act): SiLU(inplace=True)
          )
          (cv2): Conv(
            (conv): Conv2d(1024, 512, kernel_size=(1, 1), stride=(1, 1))
            (act): SiLU(inplace=True)
          )
          (m): MaxPool2d(kernel_size=5, stride=1, padding=2, dilation=1, ceil_mode=False)
        )
        (12): Conv(
          (conv): Conv2d(512, 384, kernel_size=(1, 1), stride=(1, 1))
          (act): SiLU(inplace=True)
        )
        (13): Upsample(scale_factor=2.0, mode='nearest')
        (14): Concat()
        (15): C3(
          (cv1): Conv(
            (conv): Conv2d(768, 192, kernel_size=(1, 1), stride=(1, 1))
            (act): SiLU(inplace=True)
          )
          (cv2): Conv(
            (conv): Conv2d(768, 192, kernel_size=(1, 1), stride=(1, 1))
            (act): SiLU(inplace=True)
          )
          (cv3): Conv(
            (conv): Conv2d(384, 384, kernel_size=(1, 1), stride=(1, 1))
            (act): SiLU(inplace=True)
          )
          (m): Sequential(
            (0): Bottleneck(
              (cv1): Conv(
                (conv): Conv2d(192, 192, kernel_size=(1, 1), stride=(1, 1))
                (act): SiLU(inplace=True)
              )
              (cv2): Conv(
                (conv): Conv2d(192, 192, kernel_size=(3, 3), stride=(1, 1), padding=(1, 1))
                (act): SiLU(inplace=True)
              )
            )
          )
        )
        (16): Conv(
          (conv): Conv2d(384, 256, kernel_size=(1, 1), stride=(1, 1))
          (act): SiLU(inplace=True)
        )
        (17): Upsample(scale_factor=2.0, mode='nearest')
        (18): Concat()
        (19): C3(
          (cv1): Conv(
            (conv): Conv2d(512, 128, kernel_size=(1, 1), stride=(1, 1))
            (act): SiLU(inplace=True)
          )
          (cv2): Conv(
            (conv): Conv2d(512, 128, kernel_size=(1, 1), stride=(1, 1))
            (act): SiLU(inplace=True)
          )
          (cv3): Conv(
            (conv): Conv2d(256, 256, kernel_size=(1, 1), stride=(1, 1))
            (act): SiLU(inplace=True)
          )
          (m): Sequential(
            (0): Bottleneck(
              (cv1): Conv(
                (conv): Conv2d(128, 128, kernel_size=(1, 1), stride=(1, 1))
                (act): SiLU(inplace=True)
              )
              (cv2): Conv(
                (conv): Conv2d(128, 128, kernel_size=(3, 3), stride=(1, 1), padding=(1, 1))
                (act): SiLU(inplace=True)
              )
            )
          )
        )
        (20): Conv(
          (conv): Conv2d(256, 128, kernel_size=(1, 1), stride=(1, 1))
          (act): SiLU(inplace=True)
        )
        (21): Upsample(scale_factor=2.0, mode='nearest')
        (22): Concat()
        (23): C3(
          (cv1): Conv(
            (conv): Conv2d(256, 64, kernel_size=(1, 1), stride=(1, 1))
            (act): SiLU(inplace=True)
          )
          (cv2): Conv(
            (conv): Conv2d(256, 64, kernel_size=(1, 1), stride=(1, 1))
            (act): SiLU(inplace=True)
          )
          (cv3): Conv(
            (conv): Conv2d(128, 128, kernel_size=(1, 1), stride=(1, 1))
            (act): SiLU(inplace=True)
          )
          (m): Sequential(
            (0): Bottleneck(
              (cv1): Conv(
                (conv): Conv2d(64, 64, kernel_size=(1, 1), stride=(1, 1))
                (act): SiLU(inplace=True)
              )
              (cv2): Conv(
                (conv): Conv2d(64, 64, kernel_size=(3, 3), stride=(1, 1), padding=(1, 1))
                (act): SiLU(inplace=True)
              )
            )
          )
        )
        (24): Conv(
          (conv): Conv2d(128, 128, kernel_size=(3, 3), stride=(2, 2), padding=(1, 1))
          (act): SiLU(inplace=True)
        )
        (25): Concat()
        (26): C3(
          (cv1): Conv(
            (conv): Conv2d(256, 128, kernel_size=(1, 1), stride=(1, 1))
            (act): SiLU(inplace=True)
          )
          (cv2): Conv(
            (conv): Conv2d(256, 128, kernel_size=(1, 1), stride=(1, 1))
            (act): SiLU(inplace=True)
          )
          (cv3): Conv(
            (conv): Conv2d(256, 256, kernel_size=(1, 1), stride=(1, 1))
            (act): SiLU(inplace=True)
          )
          (m): Sequential(
            (0): Bottleneck(
              (cv1): Conv(
                (conv): Conv2d(128, 128, kernel_size=(1, 1), stride=(1, 1))
                (act): SiLU(inplace=True)
              )
              (cv2): Conv(
                (conv): Conv2d(128, 128, kernel_size=(3, 3), stride=(1, 1), padding=(1, 1))
                (act): SiLU(inplace=True)
              )
            )
          )
        )
        (27): Conv(
          (conv): Conv2d(256, 256, kernel_size=(3, 3), stride=(2, 2), padding=(1, 1))
          (act): SiLU(inplace=True)
        )
        (28): Concat()
        (29): C3(
          (cv1): Conv(
            (conv): Conv2d(512, 192, kernel_size=(1, 1), stride=(1, 1))
            (act): SiLU(inplace=True)
          )
          (cv2): Conv(
            (conv): Conv2d(512, 192, kernel_size=(1, 1), stride=(1, 1))
            (act): SiLU(inplace=True)
          )
          (cv3): Conv(
            (conv): Conv2d(384, 384, kernel_size=(1, 1), stride=(1, 1))
            (act): SiLU(inplace=True)
          )
          (m): Sequential(
            (0): Bottleneck(
              (cv1): Conv(
                (conv): Conv2d(192, 192, kernel_size=(1, 1), stride=(1, 1))
                (act): SiLU(inplace=True)
              )
              (cv2): Conv(
                (conv): Conv2d(192, 192, kernel_size=(3, 3), stride=(1, 1), padding=(1, 1))
                (act): SiLU(inplace=True)
              )
            )
          )
        )
        (30): Conv(
          (conv): Conv2d(384, 384, kernel_size=(3, 3), stride=(2, 2), padding=(1, 1))
          (act): SiLU(inplace=True)
        )
        (31): Concat()
        (32): C3(
          (cv1): Conv(
            (conv): Conv2d(768, 256, kernel_size=(1, 1), stride=(1, 1))
            (act): SiLU(inplace=True)
          )
          (cv2): Conv(
            (conv): Conv2d(768, 256, kernel_size=(1, 1), stride=(1, 1))
            (act): SiLU(inplace=True)
          )
          (cv3): Conv(
            (conv): Conv2d(512, 512, kernel_size=(1, 1), stride=(1, 1))
            (act): SiLU(inplace=True)
          )
          (m): Sequential(
            (0): Bottleneck(
              (cv1): Conv(
                (conv): Conv2d(256, 256, kernel_size=(1, 1), stride=(1, 1))
                (act): SiLU(inplace=True)
              )
              (cv2): Conv(
                (conv): Conv2d(256, 256, kernel_size=(3, 3), stride=(1, 1), padding=(1, 1))
                (act): SiLU(inplace=True)
              )
            )
          )
        )
        (33): Detect(
          (m): ModuleList(
            (0): Conv2d(128, 33, kernel_size=(1, 1), stride=(1, 1))
            (1): Conv2d(256, 33, kernel_size=(1, 1), stride=(1, 1))
            (2): Conv2d(384, 33, kernel_size=(1, 1), stride=(1, 1))
            (3): Conv2d(512, 33, kernel_size=(1, 1), stride=(1, 1))
          )
        )
      )
    )
  )
)
Error saving file: [Errno 13] Permission denied: 'c:\\Users\\aviel\\Desktop\\Projects\\Websites\\Fripen-AI\\Fripen-AI-2.0\\app\\static\\uploads\\blueberrytest.jpg'
Successful loading of model!
model: AutoShape(
  (model): DetectMultiBackend(
    (model): DetectionModel(
      (model): Sequential(
        (0): Conv(
          (conv): Conv2d(3, 32, kernel_size=(6, 6), stride=(2, 2), padding=(2, 2))
          (act): SiLU(inplace=True)
        )
        (1): Conv(
          (conv): Conv2d(32, 64, kernel_size=(3, 3), stride=(2, 2), padding=(1, 1))
          (act): SiLU(inplace=True)
        )
        (2): C3(
          (cv1): Conv(
            (conv): Conv2d(64, 32, kernel_size=(1, 1), stride=(1, 1))
            (act): SiLU(inplace=True)
          )
          (cv2): Conv(
            (conv): Conv2d(64, 32, kernel_size=(1, 1), stride=(1, 1))
            (act): SiLU(inplace=True)
          )
          (cv3): Conv(
            (conv): Conv2d(64, 64, kernel_size=(1, 1), stride=(1, 1))
            (act): SiLU(inplace=True)
          )
          (m): Sequential(
            (0): Bottleneck(
              (cv1): Conv(
                (conv): Conv2d(32, 32, kernel_size=(1, 1), stride=(1, 1))
                (act): SiLU(inplace=True)
              )
              (cv2): Conv(
                (conv): Conv2d(32, 32, kernel_size=(3, 3), stride=(1, 1), padding=(1, 1))
                (act): SiLU(inplace=True)
              )
            )
          )
        )
        (3): Conv(
          (conv): Conv2d(64, 128, kernel_size=(3, 3), stride=(2, 2), padding=(1, 1))
          (act): SiLU(inplace=True)
        )
        (4): C3(
          (cv1): Conv(
            (conv): Conv2d(128, 64, kernel_size=(1, 1), stride=(1, 1))
            (act): SiLU(inplace=True)
          )
          (cv2): Conv(
            (conv): Conv2d(128, 64, kernel_size=(1, 1), stride=(1, 1))
            (act): SiLU(inplace=True)
          )
          (cv3): Conv(
            (conv): Conv2d(128, 128, kernel_size=(1, 1), stride=(1, 1))
            (act): SiLU(inplace=True)
          )
          (m): Sequential(
            (0): Bottleneck(
              (cv1): Conv(
                (conv): Conv2d(64, 64, kernel_size=(1, 1), stride=(1, 1))
                (act): SiLU(inplace=True)
              )
              (cv2): Conv(
                (conv): Conv2d(64, 64, kernel_size=(3, 3), stride=(1, 1), padding=(1, 1))
                (act): SiLU(inplace=True)
              )
            )
            (1): Bottleneck(
              (cv1): Conv(
                (conv): Conv2d(64, 64, kernel_size=(1, 1), stride=(1, 1))
                (act): SiLU(inplace=True)
              )
              (cv2): Conv(
                (conv): Conv2d(64, 64, kernel_size=(3, 3), stride=(1, 1), padding=(1, 1))
                (act): SiLU(inplace=True)
              )
            )
          )
        )
        (5): Conv(
          (conv): Conv2d(128, 256, kernel_size=(3, 3), stride=(2, 2), padding=(1, 1))
          (act): SiLU(inplace=True)
        )
        (6): C3(
          (cv1): Conv(
            (conv): Conv2d(256, 128, kernel_size=(1, 1), stride=(1, 1))
            (act): SiLU(inplace=True)
          )
          (cv2): Conv(
            (conv): Conv2d(256, 128, kernel_size=(1, 1), stride=(1, 1))
            (act): SiLU(inplace=True)
          )
          (cv3): Conv(
            (conv): Conv2d(256, 256, kernel_size=(1, 1), stride=(1, 1))
            (act): SiLU(inplace=True)
          )
          (m): Sequential(
            (0): Bottleneck(
              (cv1): Conv(
                (conv): Conv2d(128, 128, kernel_size=(1, 1), stride=(1, 1))
                (act): SiLU(inplace=True)
              )
              (cv2): Conv(
                (conv): Conv2d(128, 128, kernel_size=(3, 3), stride=(1, 1), padding=(1, 1))
                (act): SiLU(inplace=True)
              )
            )
            (1): Bottleneck(
              (cv1): Conv(
                (conv): Conv2d(128, 128, kernel_size=(1, 1), stride=(1, 1))
                (act): SiLU(inplace=True)
              )
              (cv2): Conv(
                (conv): Conv2d(128, 128, kernel_size=(3, 3), stride=(1, 1), padding=(1, 1))
                (act): SiLU(inplace=True)
              )
            )
            (2): Bottleneck(
              (cv1): Conv(
                (conv): Conv2d(128, 128, kernel_size=(1, 1), stride=(1, 1))
                (act): SiLU(inplace=True)
              )
              (cv2): Conv(
                (conv): Conv2d(128, 128, kernel_size=(3, 3), stride=(1, 1), padding=(1, 1))
                (act): SiLU(inplace=True)
              )
            )
          )
        )
        (7): Conv(
          (conv): Conv2d(256, 384, kernel_size=(3, 3), stride=(2, 2), padding=(1, 1))
          (act): SiLU(inplace=True)
        )
        (8): C3(
          (cv1): Conv(
            (conv): Conv2d(384, 192, kernel_size=(1, 1), stride=(1, 1))
            (act): SiLU(inplace=True)
          )
          (cv2): Conv(
            (conv): Conv2d(384, 192, kernel_size=(1, 1), stride=(1, 1))
            (act): SiLU(inplace=True)
          )
          (cv3): Conv(
            (conv): Conv2d(384, 384, kernel_size=(1, 1), stride=(1, 1))
            (act): SiLU(inplace=True)
          )
          (m): Sequential(
            (0): Bottleneck(
              (cv1): Conv(
                (conv): Conv2d(192, 192, kernel_size=(1, 1), stride=(1, 1))
                (act): SiLU(inplace=True)
              )
              (cv2): Conv(
                (conv): Conv2d(192, 192, kernel_size=(3, 3), stride=(1, 1), padding=(1, 1))
                (act): SiLU(inplace=True)
              )
            )
          )
        )
        (9): Conv(
          (conv): Conv2d(384, 512, kernel_size=(3, 3), stride=(2, 2), padding=(1, 1))
          (act): SiLU(inplace=True)
        )
        (10): C3(
          (cv1): Conv(
            (conv): Conv2d(512, 256, kernel_size=(1, 1), stride=(1, 1))
            (act): SiLU(inplace=True)
          )
          (cv2): Conv(
            (conv): Conv2d(512, 256, kernel_size=(1, 1), stride=(1, 1))
            (act): SiLU(inplace=True)
          )
          (cv3): Conv(
            (conv): Conv2d(512, 512, kernel_size=(1, 1), stride=(1, 1))
            (act): SiLU(inplace=True)
          )
          (m): Sequential(
            (0): Bottleneck(
              (cv1): Conv(
                (conv): Conv2d(256, 256, kernel_size=(1, 1), stride=(1, 1))
                (act): SiLU(inplace=True)
              )
              (cv2): Conv(
                (conv): Conv2d(256, 256, kernel_size=(3, 3), stride=(1, 1), padding=(1, 1))
                (act): SiLU(inplace=True)
              )
            )
          )
        )
        (11): SPPF(
          (cv1): Conv(
            (conv): Conv2d(512, 256, kernel_size=(1, 1), stride=(1, 1))
            (act): SiLU(inplace=True)
          )
          (cv2): Conv(
            (conv): Conv2d(1024, 512, kernel_size=(1, 1), stride=(1, 1))
            (act): SiLU(inplace=True)
          )
          (m): MaxPool2d(kernel_size=5, stride=1, padding=2, dilation=1, ceil_mode=False)
        )
        (12): Conv(
          (conv): Conv2d(512, 384, kernel_size=(1, 1), stride=(1, 1))
          (act): SiLU(inplace=True)
        )
        (13): Upsample(scale_factor=2.0, mode='nearest')
        (14): Concat()
        (15): C3(
          (cv1): Conv(
            (conv): Conv2d(768, 192, kernel_size=(1, 1), stride=(1, 1))
            (act): SiLU(inplace=True)
          )
          (cv2): Conv(
            (conv): Conv2d(768, 192, kernel_size=(1, 1), stride=(1, 1))
            (act): SiLU(inplace=True)
          )
          (cv3): Conv(
            (conv): Conv2d(384, 384, kernel_size=(1, 1), stride=(1, 1))
            (act): SiLU(inplace=True)
          )
          (m): Sequential(
            (0): Bottleneck(
              (cv1): Conv(
                (conv): Conv2d(192, 192, kernel_size=(1, 1), stride=(1, 1))
                (act): SiLU(inplace=True)
              )
              (cv2): Conv(
                (conv): Conv2d(192, 192, kernel_size=(3, 3), stride=(1, 1), padding=(1, 1))
                (act): SiLU(inplace=True)
              )
            )
          )
        )
        (16): Conv(
          (conv): Conv2d(384, 256, kernel_size=(1, 1), stride=(1, 1))
          (act): SiLU(inplace=True)
        )
        (17): Upsample(scale_factor=2.0, mode='nearest')
        (18): Concat()
        (19): C3(
          (cv1): Conv(
            (conv): Conv2d(512, 128, kernel_size=(1, 1), stride=(1, 1))
            (act): SiLU(inplace=True)
          )
          (cv2): Conv(
            (conv): Conv2d(512, 128, kernel_size=(1, 1), stride=(1, 1))
            (act): SiLU(inplace=True)
          )
          (cv3): Conv(
            (conv): Conv2d(256, 256, kernel_size=(1, 1), stride=(1, 1))
            (act): SiLU(inplace=True)
          )
          (m): Sequential(
            (0): Bottleneck(
              (cv1): Conv(
                (conv): Conv2d(128, 128, kernel_size=(1, 1), stride=(1, 1))
                (act): SiLU(inplace=True)
              )
              (cv2): Conv(
                (conv): Conv2d(128, 128, kernel_size=(3, 3), stride=(1, 1), padding=(1, 1))
                (act): SiLU(inplace=True)
              )
            )
          )
        )
        (20): Conv(
          (conv): Conv2d(256, 128, kernel_size=(1, 1), stride=(1, 1))
          (act): SiLU(inplace=True)
        )
        (21): Upsample(scale_factor=2.0, mode='nearest')
        (22): Concat()
        (23): C3(
          (cv1): Conv(
            (conv): Conv2d(256, 64, kernel_size=(1, 1), stride=(1, 1))
            (act): SiLU(inplace=True)
          )
          (cv2): Conv(
            (conv): Conv2d(256, 64, kernel_size=(1, 1), stride=(1, 1))
            (act): SiLU(inplace=True)
          )
          (cv3): Conv(
            (conv): Conv2d(128, 128, kernel_size=(1, 1), stride=(1, 1))
            (act): SiLU(inplace=True)
          )
          (m): Sequential(
            (0): Bottleneck(
              (cv1): Conv(
                (conv): Conv2d(64, 64, kernel_size=(1, 1), stride=(1, 1))
                (act): SiLU(inplace=True)
              )
              (cv2): Conv(
                (conv): Conv2d(64, 64, kernel_size=(3, 3), stride=(1, 1), padding=(1, 1))
                (act): SiLU(inplace=True)
              )
            )
          )
        )
        (24): Conv(
          (conv): Conv2d(128, 128, kernel_size=(3, 3), stride=(2, 2), padding=(1, 1))
          (act): SiLU(inplace=True)
        )
        (25): Concat()
        (26): C3(
          (cv1): Conv(
            (conv): Conv2d(256, 128, kernel_size=(1, 1), stride=(1, 1))
            (act): SiLU(inplace=True)
          )
          (cv2): Conv(
            (conv): Conv2d(256, 128, kernel_size=(1, 1), stride=(1, 1))
            (act): SiLU(inplace=True)
          )
          (cv3): Conv(
            (conv): Conv2d(256, 256, kernel_size=(1, 1), stride=(1, 1))
            (act): SiLU(inplace=True)
          )
          (m): Sequential(
            (0): Bottleneck(
              (cv1): Conv(
                (conv): Conv2d(128, 128, kernel_size=(1, 1), stride=(1, 1))
                (act): SiLU(inplace=True)
              )
              (cv2): Conv(
                (conv): Conv2d(128, 128, kernel_size=(3, 3), stride=(1, 1), padding=(1, 1))
                (act): SiLU(inplace=True)
              )
            )
          )
        )
        (27): Conv(
          (conv): Conv2d(256, 256, kernel_size=(3, 3), stride=(2, 2), padding=(1, 1))
          (act): SiLU(inplace=True)
        )
        (28): Concat()
        (29): C3(
          (cv1): Conv(
            (conv): Conv2d(512, 192, kernel_size=(1, 1), stride=(1, 1))
            (act): SiLU(inplace=True)
          )
          (cv2): Conv(
            (conv): Conv2d(512, 192, kernel_size=(1, 1), stride=(1, 1))
            (act): SiLU(inplace=True)
          )
          (cv3): Conv(
            (conv): Conv2d(384, 384, kernel_size=(1, 1), stride=(1, 1))
            (act): SiLU(inplace=True)
          )
          (m): Sequential(
            (0): Bottleneck(
              (cv1): Conv(
                (conv): Conv2d(192, 192, kernel_size=(1, 1), stride=(1, 1))
                (act): SiLU(inplace=True)
              )
              (cv2): Conv(
                (conv): Conv2d(192, 192, kernel_size=(3, 3), stride=(1, 1), padding=(1, 1))
                (act): SiLU(inplace=True)
              )
            )
          )
        )
        (30): Conv(
          (conv): Conv2d(384, 384, kernel_size=(3, 3), stride=(2, 2), padding=(1, 1))
          (act): SiLU(inplace=True)
        )
        (31): Concat()
        (32): C3(
          (cv1): Conv(
            (conv): Conv2d(768, 256, kernel_size=(1, 1), stride=(1, 1))
            (act): SiLU(inplace=True)
          )
          (cv2): Conv(
            (conv): Conv2d(768, 256, kernel_size=(1, 1), stride=(1, 1))
            (act): SiLU(inplace=True)
          )
          (cv3): Conv(
            (conv): Conv2d(512, 512, kernel_size=(1, 1), stride=(1, 1))
            (act): SiLU(inplace=True)
          )
          (m): Sequential(
            (0): Bottleneck(
              (cv1): Conv(
                (conv): Conv2d(256, 256, kernel_size=(1, 1), stride=(1, 1))
                (act): SiLU(inplace=True)
              )
              (cv2): Conv(
                (conv): Conv2d(256, 256, kernel_size=(3, 3), stride=(1, 1), padding=(1, 1))
                (act): SiLU(inplace=True)
              )
            )
          )
        )
        (33): Detect(
          (m): ModuleList(
            (0): Conv2d(128, 33, kernel_size=(1, 1), stride=(1, 1))
            (1): Conv2d(256, 33, kernel_size=(1, 1), stride=(1, 1))
            (2): Conv2d(384, 33, kernel_size=(1, 1), stride=(1, 1))
            (3): Conv2d(512, 33, kernel_size=(1, 1), stride=(1, 1))
          )
        )
      )
    )
  )
)
Current location!: c:\Users\aviel\Desktop\Projects\Websites\Fripen-AI\Fripen-AI-2.0\app
Image path: c:\Users\aviel\Desktop\Projects\Websites\Fripen-AI\Fripen-AI-2.0\app\static\uploads\blueberrytest.jpg
Ran through results
Image path: None
Image path entered into if loop
old image removed
Results saved into: c:\Users\aviel\Desktop\Projects\Websites\Fripen-AI\Fripen-AI-2.0\app\static\uploads\blueberrytest.jpg
…
